…
[lambda-Lambda-Vector] 2024-12-12 21:23:23,406 (mt:347) INFO: Vocabulary size: 5000
[lambda-Lambda-Vector] 2024-12-12 21:23:23,406 (mt:361) INFO: Source vocabulary size: 6000
[lambda-Lambda-Vector] 2024-12-12 21:23:23,570 (discrete_asr_espnet_model:96) WARNING: Set decoder to none as ctc_weight==1.0
[lambda-Lambda-Vector] 2024-12-12 21:23:24,089 (abs_task:1387) INFO: pytorch.version=2.3.0+cu121, cuda.available=True, cudnn.version=8902, cudnn.benchmark=False, cudnn.deterministic=True
[lambda-Lambda-Vector] 2024-12-12 21:23:24,094 (abs_task:1388) INFO: Model structure:
ESPnetDiscreteASRModel(
  (frontend): Embedding(
    (embed): Sequential(
      (0): Embedding(6000, 512)
      (1): PositionalEncoding(
        (dropout): Dropout(p=0.1, inplace=False)
      )
    )
  )
  (encoder): EBranchformerEncoder(
    (embed): Conv1dSubsampling2(
      (conv): Sequential(
        (0): Conv1d(512, 256, kernel_size=(3,), stride=(1,))
        (1): ReLU()
        (2): Conv1d(256, 256, kernel_size=(3,), stride=(2,))
        (3): ReLU()
      )
      (out): Sequential(
        (0): Linear(in_features=256, out_features=256, bias=True)
        (1): RelPositionalEncoding(
          (dropout): Dropout(p=0.1, inplace=False)
        )
      )
    )
    (encoders): MultiSequential(
      (0): EBranchformerEncoderLayer(
        (attn): RelPositionMultiHeadedAttention(
          (linear_q): Linear(in_features=256, out_features=256, bias=True)
          (linear_k): Linear(in_features=256, out_features=256, bias=True)
          (linear_v): Linear(in_features=256, out_features=256, bias=True)
          (linear_out): Linear(in_features=256, out_features=256, bias=True)
          (dropout): Dropout(p=0.1, inplace=False)
          (q_norm): Identity()
          (k_norm): Identity()
          (linear_pos): Linear(in_features=256, out_features=256, bias=False)
        )
        (cgmlp): ConvolutionalGatingMLP(
          (channel_proj1): Sequential(
            (0): Linear(in_features=256, out_features=1024, bias=True)
            (1): GELU(approximate='none')
          )
          (csgu): ConvolutionalSpatialGatingUnit(
            (norm): LayerNorm((512,), eps=1e-12, elementwise_affine=True)
            (conv): Conv1d(512, 512, kernel_size=(31,), stride=(1,), padding=(15,), groups=512)
            (act): Identity()
            (dropout): Dropout(p=0.1, inplace=False)
          )
          (channel_proj2): Linear(in_features=512, out_features=256, bias=True)
        )
        (feed_forward): PositionwiseFeedForward(
          (w_1): Linear(in_features=256, out_features=1024, bias=True)
          (w_2): Linear(in_features=1024, out_features=256, bias=True)
          (dropout): Dropout(p=0.1, inplace=False)
          (activation): Swish()
        )
        (feed_forward_macaron): PositionwiseFeedForward(
          (w_1): Linear(in_features=256, out_features=1024, bias=True)
          (w_2): Linear(in_features=1024, out_features=256, bias=True)
          (dropout): Dropout(p=0.1, inplace=False)
          (activation): Swish()
        )
        (norm_ff): LayerNorm((256,), eps=1e-12, elementwise_affine=True)
        (norm_ff_macaron): LayerNorm((256,), eps=1e-12, elementwise_affine=True)
        (norm_mha): LayerNorm((256,), eps=1e-12, elementwise_affine=True)
        (norm_mlp): LayerNorm((256,), eps=1e-12, elementwise_affine=True)
        (norm_final): LayerNorm((256,), eps=1e-12, elementwise_affine=True)
        (dropout): Dropout(p=0.1, inplace=False)
        (depthwise_conv_fusion): Conv1d(512, 512, kernel_size=(31,), stride=(1,), padding=(15,), groups=512)
        (merge_proj): Linear(in_features=512, out_features=256, bias=True)
      )
      (1): EBranchformerEncoderLayer(
        (attn): RelPositionMultiHeadedAttention(
          (linear_q): Linear(in_features=256, out_features=256, bias=True)
          (linear_k): Linear(in_features=256, out_features=256, bias=True)
          (linear_v): Linear(in_features=256, out_features=256, bias=True)
          (linear_out): Linear(in_features=256, out_features=256, bias=True)
          (dropout): Dropout(p=0.1, inplace=False)
          (q_norm): Identity()
          (k_norm): Identity()
          (linear_pos): Linear(in_features=256, out_features=256, bias=False)
        )
        (cgmlp): ConvolutionalGatingMLP(
          (channel_proj1): Sequential(
            (0): Linear(in_features=256, out_features=1024, bias=True)
            (1): GELU(approximate='none')
          )
          (csgu): ConvolutionalSpatialGatingUnit(
            (norm): LayerNorm((512,), eps=1e-12, elementwise_affine=True)
            (conv): Conv1d(512, 512, kernel_size=(31,), stride=(1,), padding=(15,), groups=512)
            (act): Identity()
            (dropout): Dropout(p=0.1, inplace=False)
          )
          (channel_proj2): Linear(in_features=512, out_features=256, bias=True)
        )
        (feed_forward): PositionwiseFeedForward(
          (w_1): Linear(in_features=256, out_features=1024, bias=True)
          (w_2): Linear(in_features=1024, out_features=256, bias=True)
          (dropout): Dropout(p=0.1, inplace=False)
          (activation): Swish()
        )
        (feed_forward_macaron): PositionwiseFeedForward(
          (w_1): Linear(in_features=256, out_features=1024, bias=True)
          (w_2): Linear(in_features=1024, out_features=256, bias=True)
          (dropout): Dropout(p=0.1, inplace=False)
          (activation): Swish()
        )
        (norm_ff): LayerNorm((256,), eps=1e-12, elementwise_affine=True)
        (norm_ff_macaron): LayerNorm((256,), eps=1e-12, elementwise_affine=True)
        (norm_mha): LayerNorm((256,), eps=1e-12, elementwise_affine=True)
        (norm_mlp): LayerNorm((256,), eps=1e-12, elementwise_affine=True)
        (norm_final): LayerNorm((256,), eps=1e-12, elementwise_affine=True)
        (dropout): Dropout(p=0.1, inplace=False)
        (depthwise_conv_fusion): Conv1d(512, 512, kernel_size=(31,), stride=(1,), padding=(15,), groups=512)
        (merge_proj): Linear(in_features=512, out_features=256, bias=True)
      )
      (2): EBranchformerEncoderLayer(
        (attn): RelPositionMultiHeadedAttention(
          (linear_q): Linear(in_features=256, out_features=256, bias=True)
          (linear_k): Linear(in_features=256, out_features=256, bias=True)
          (linear_v): Linear(in_features=256, out_features=256, bias=True)
          (linear_out): Linear(in_features=256, out_features=256, bias=True)
          (dropout): Dropout(p=0.1, inplace=False)
          (q_norm): Identity()
          (k_norm): Identity()
          (linear_pos): Linear(in_features=256, out_features=256, bias=False)
        )
        (cgmlp): ConvolutionalGatingMLP(
          (channel_proj1): Sequential(
            (0): Linear(in_features=256, out_features=1024, bias=True)
            (1): GELU(approximate='none')
          )
          (csgu): ConvolutionalSpatialGatingUnit(
            (norm): LayerNorm((512,), eps=1e-12, elementwise_affine=True)
            (conv): Conv1d(512, 512, kernel_size=(31,), stride=(1,), padding=(15,), groups=512)
            (act): Identity()
            (dropout): Dropout(p=0.1, inplace=False)
          )
          (channel_proj2): Linear(in_features=512, out_features=256, bias=True)
        )
        (feed_forward): PositionwiseFeedForward(
          (w_1): Linear(in_features=256, out_features=1024, bias=True)
          (w_2): Linear(in_features=1024, out_features=256, bias=True)
          (dropout): Dropout(p=0.1, inplace=False)
          (activation): Swish()
        )
        (feed_forward_macaron): PositionwiseFeedForward(
          (w_1): Linear(in_features=256, out_features=1024, bias=True)
          (w_2): Linear(in_features=1024, out_features=256, bias=True)
          (dropout): Dropout(p=0.1, inplace=False)
          (activation): Swish()
        )
        (norm_ff): LayerNorm((256,), eps=1e-12, elementwise_affine=True)
        (norm_ff_macaron): LayerNorm((256,), eps=1e-12, elementwise_affine=True)
        (norm_mha): LayerNorm((256,), eps=1e-12, elementwise_affine=True)
        (norm_mlp): LayerNorm((256,), eps=1e-12, elementwise_affine=True)
        (norm_final): LayerNorm((256,), eps=1e-12, elementwise_affine=True)
        (dropout): Dropout(p=0.1, inplace=False)
        (depthwise_conv_fusion): Conv1d(512, 512, kernel_size=(31,), stride=(1,), padding=(15,), groups=512)
        (merge_proj): Linear(in_features=512, out_features=256, bias=True)
      )
      (3): EBranchformerEncoderLayer(
        (attn): RelPositionMultiHeadedAttention(
          (linear_q): Linear(in_features=256, out_features=256, bias=True)
          (linear_k): Linear(in_features=256, out_features=256, bias=True)
          (linear_v): Linear(in_features=256, out_features=256, bias=True)
          (linear_out): Linear(in_features=256, out_features=256, bias=True)
          (dropout): Dropout(p=0.1, inplace=False)
          (q_norm): Identity()
          (k_norm): Identity()
          (linear_pos): Linear(in_features=256, out_features=256, bias=False)
        )
        (cgmlp): ConvolutionalGatingMLP(
          (channel_proj1): Sequential(
            (0): Linear(in_features=256, out_features=1024, bias=True)
            (1): GELU(approximate='none')
          )
          (csgu): ConvolutionalSpatialGatingUnit(
            (norm): LayerNorm((512,), eps=1e-12, elementwise_affine=True)
            (conv): Conv1d(512, 512, kernel_size=(31,), stride=(1,), padding=(15,), groups=512)
            (act): Identity()
            (dropout): Dropout(p=0.1, inplace=False)
          )
          (channel_proj2): Linear(in_features=512, out_features=256, bias=True)
        )
        (feed_forward): PositionwiseFeedForward(
          (w_1): Linear(in_features=256, out_features=1024, bias=True)
          (w_2): Linear(in_features=1024, out_features=256, bias=True)
          (dropout): Dropout(p=0.1, inplace=False)
          (activation): Swish()
        )
        (feed_forward_macaron): PositionwiseFeedForward(
          (w_1): Linear(in_features=256, out_features=1024, bias=True)
          (w_2): Linear(in_features=1024, out_features=256, bias=True)
          (dropout): Dropout(p=0.1, inplace=False)
          (activation): Swish()
        )
        (norm_ff): LayerNorm((256,), eps=1e-12, elementwise_affine=True)
        (norm_ff_macaron): LayerNorm((256,), eps=1e-12, elementwise_affine=True)
        (norm_mha): LayerNorm((256,), eps=1e-12, elementwise_affine=True)
        (norm_mlp): LayerNorm((256,), eps=1e-12, elementwise_affine=True)
        (norm_final): LayerNorm((256,), eps=1e-12, elementwise_affine=True)
        (dropout): Dropout(p=0.1, inplace=False)
        (depthwise_conv_fusion): Conv1d(512, 512, kernel_size=(31,), stride=(1,), padding=(15,), groups=512)
        (merge_proj): Linear(in_features=512, out_features=256, bias=True)
      )
      (4): EBranchformerEncoderLayer(
        (attn): RelPositionMultiHeadedAttention(
          (linear_q): Linear(in_features=256, out_features=256, bias=True)
          (linear_k): Linear(in_features=256, out_features=256, bias=True)
          (linear_v): Linear(in_features=256, out_features=256, bias=True)
          (linear_out): Linear(in_features=256, out_features=256, bias=True)
          (dropout): Dropout(p=0.1, inplace=False)
          (q_norm): Identity()
          (k_norm): Identity()
          (linear_pos): Linear(in_features=256, out_features=256, bias=False)
        )
        (cgmlp): ConvolutionalGatingMLP(
          (channel_proj1): Sequential(
            (0): Linear(in_features=256, out_features=1024, bias=True)
            (1): GELU(approximate='none')
          )
          (csgu): ConvolutionalSpatialGatingUnit(
            (norm): LayerNorm((512,), eps=1e-12, elementwise_affine=True)
            (conv): Conv1d(512, 512, kernel_size=(31,), stride=(1,), padding=(15,), groups=512)
            (act): Identity()
            (dropout): Dropout(p=0.1, inplace=False)
          )
          (channel_proj2): Linear(in_features=512, out_features=256, bias=True)
        )
        (feed_forward): PositionwiseFeedForward(
          (w_1): Linear(in_features=256, out_features=1024, bias=True)
          (w_2): Linear(in_features=1024, out_features=256, bias=True)
          (dropout): Dropout(p=0.1, inplace=False)
          (activation): Swish()
        )
        (feed_forward_macaron): PositionwiseFeedForward(
          (w_1): Linear(in_features=256, out_features=1024, bias=True)
          (w_2): Linear(in_features=1024, out_features=256, bias=True)
          (dropout): Dropout(p=0.1, inplace=False)
          (activation): Swish()
        )
        (norm_ff): LayerNorm((256,), eps=1e-12, elementwise_affine=True)
        (norm_ff_macaron): LayerNorm((256,), eps=1e-12, elementwise_affine=True)
        (norm_mha): LayerNorm((256,), eps=1e-12, elementwise_affine=True)
        (norm_mlp): LayerNorm((256,), eps=1e-12, elementwise_affine=True)
        (norm_final): LayerNorm((256,), eps=1e-12, elementwise_affine=True)
        (dropout): Dropout(p=0.1, inplace=False)
        (depthwise_conv_fusion): Conv1d(512, 512, kernel_size=(31,), stride=(1,), padding=(15,), groups=512)
        (merge_proj): Linear(in_features=512, out_features=256, bias=True)
      )
      (5): EBranchformerEncoderLayer(
        (attn): RelPositionMultiHeadedAttention(
          (linear_q): Linear(in_features=256, out_features=256, bias=True)
          (linear_k): Linear(in_features=256, out_features=256, bias=True)
          (linear_v): Linear(in_features=256, out_features=256, bias=True)
          (linear_out): Linear(in_features=256, out_features=256, bias=True)
          (dropout): Dropout(p=0.1, inplace=False)
          (q_norm): Identity()
          (k_norm): Identity()
          (linear_pos): Linear(in_features=256, out_features=256, bias=False)
        )
        (cgmlp): ConvolutionalGatingMLP(
          (channel_proj1): Sequential(
            (0): Linear(in_features=256, out_features=1024, bias=True)
            (1): GELU(approximate='none')
          )
          (csgu): ConvolutionalSpatialGatingUnit(
            (norm): LayerNorm((512,), eps=1e-12, elementwise_affine=True)
            (conv): Conv1d(512, 512, kernel_size=(31,), stride=(1,), padding=(15,), groups=512)
            (act): Identity()
            (dropout): Dropout(p=0.1, inplace=False)
          )
          (channel_proj2): Linear(in_features=512, out_features=256, bias=True)
        )
        (feed_forward): PositionwiseFeedForward(
          (w_1): Linear(in_features=256, out_features=1024, bias=True)
          (w_2): Linear(in_features=1024, out_features=256, bias=True)
          (dropout): Dropout(p=0.1, inplace=False)
          (activation): Swish()
        )
        (feed_forward_macaron): PositionwiseFeedForward(
          (w_1): Linear(in_features=256, out_features=1024, bias=True)
          (w_2): Linear(in_features=1024, out_features=256, bias=True)
          (dropout): Dropout(p=0.1, inplace=False)
          (activation): Swish()
        )
        (norm_ff): LayerNorm((256,), eps=1e-12, elementwise_affine=True)
        (norm_ff_macaron): LayerNorm((256,), eps=1e-12, elementwise_affine=True)
        (norm_mha): LayerNorm((256,), eps=1e-12, elementwise_affine=True)
        (norm_mlp): LayerNorm((256,), eps=1e-12, elementwise_affine=True)
        (norm_final): LayerNorm((256,), eps=1e-12, elementwise_affine=True)
        (dropout): Dropout(p=0.1, inplace=False)
        (depthwise_conv_fusion): Conv1d(512, 512, kernel_size=(31,), stride=(1,), padding=(15,), groups=512)
        (merge_proj): Linear(in_features=512, out_features=256, bias=True)
      )
      (6): EBranchformerEncoderLayer(
        (attn): RelPositionMultiHeadedAttention(
          (linear_q): Linear(in_features=256, out_features=256, bias=True)
          (linear_k): Linear(in_features=256, out_features=256, bias=True)
          (linear_v): Linear(in_features=256, out_features=256, bias=True)
          (linear_out): Linear(in_features=256, out_features=256, bias=True)
          (dropout): Dropout(p=0.1, inplace=False)
          (q_norm): Identity()
          (k_norm): Identity()
          (linear_pos): Linear(in_features=256, out_features=256, bias=False)
        )
        (cgmlp): ConvolutionalGatingMLP(
          (channel_proj1): Sequential(
            (0): Linear(in_features=256, out_features=1024, bias=True)
            (1): GELU(approximate='none')
          )
          (csgu): ConvolutionalSpatialGatingUnit(
            (norm): LayerNorm((512,), eps=1e-12, elementwise_affine=True)
            (conv): Conv1d(512, 512, kernel_size=(31,), stride=(1,), padding=(15,), groups=512)
            (act): Identity()
            (dropout): Dropout(p=0.1, inplace=False)
          )
          (channel_proj2): Linear(in_features=512, out_features=256, bias=True)
        )
        (feed_forward): PositionwiseFeedForward(
          (w_1): Linear(in_features=256, out_features=1024, bias=True)
          (w_2): Linear(in_features=1024, out_features=256, bias=True)
          (dropout): Dropout(p=0.1, inplace=False)
          (activation): Swish()
        )
        (feed_forward_macaron): PositionwiseFeedForward(
          (w_1): Linear(in_features=256, out_features=1024, bias=True)
          (w_2): Linear(in_features=1024, out_features=256, bias=True)
          (dropout): Dropout(p=0.1, inplace=False)
          (activation): Swish()
        )
        (norm_ff): LayerNorm((256,), eps=1e-12, elementwise_affine=True)
        (norm_ff_macaron): LayerNorm((256,), eps=1e-12, elementwise_affine=True)
        (norm_mha): LayerNorm((256,), eps=1e-12, elementwise_affine=True)
        (norm_mlp): LayerNorm((256,), eps=1e-12, elementwise_affine=True)
        (norm_final): LayerNorm((256,), eps=1e-12, elementwise_affine=True)
        (dropout): Dropout(p=0.1, inplace=False)
        (depthwise_conv_fusion): Conv1d(512, 512, kernel_size=(31,), stride=(1,), padding=(15,), groups=512)
        (merge_proj): Linear(in_features=512, out_features=256, bias=True)
      )
      (7): EBranchformerEncoderLayer(
        (attn): RelPositionMultiHeadedAttention(
          (linear_q): Linear(in_features=256, out_features=256, bias=True)
          (linear_k): Linear(in_features=256, out_features=256, bias=True)
          (linear_v): Linear(in_features=256, out_features=256, bias=True)
          (linear_out): Linear(in_features=256, out_features=256, bias=True)
          (dropout): Dropout(p=0.1, inplace=False)
          (q_norm): Identity()
          (k_norm): Identity()
          (linear_pos): Linear(in_features=256, out_features=256, bias=False)
        )
        (cgmlp): ConvolutionalGatingMLP(
          (channel_proj1): Sequential(
            (0): Linear(in_features=256, out_features=1024, bias=True)
            (1): GELU(approximate='none')
          )
          (csgu): ConvolutionalSpatialGatingUnit(
            (norm): LayerNorm((512,), eps=1e-12, elementwise_affine=True)
            (conv): Conv1d(512, 512, kernel_size=(31,), stride=(1,), padding=(15,), groups=512)
            (act): Identity()
            (dropout): Dropout(p=0.1, inplace=False)
          )
          (channel_proj2): Linear(in_features=512, out_features=256, bias=True)
        )
        (feed_forward): PositionwiseFeedForward(
          (w_1): Linear(in_features=256, out_features=1024, bias=True)
          (w_2): Linear(in_features=1024, out_features=256, bias=True)
          (dropout): Dropout(p=0.1, inplace=False)
          (activation): Swish()
        )
        (feed_forward_macaron): PositionwiseFeedForward(
          (w_1): Linear(in_features=256, out_features=1024, bias=True)
          (w_2): Linear(in_features=1024, out_features=256, bias=True)
          (dropout): Dropout(p=0.1, inplace=False)
          (activation): Swish()
        )
        (norm_ff): LayerNorm((256,), eps=1e-12, elementwise_affine=True)
        (norm_ff_macaron): LayerNorm((256,), eps=1e-12, elementwise_affine=True)
        (norm_mha): LayerNorm((256,), eps=1e-12, elementwise_affine=True)
        (norm_mlp): LayerNorm((256,), eps=1e-12, elementwise_affine=True)
        (norm_final): LayerNorm((256,), eps=1e-12, elementwise_affine=True)
        (dropout): Dropout(p=0.1, inplace=False)
        (depthwise_conv_fusion): Conv1d(512, 512, kernel_size=(31,), stride=(1,), padding=(15,), groups=512)
        (merge_proj): Linear(in_features=512, out_features=256, bias=True)
      )
      (8): EBranchformerEncoderLayer(
        (attn): RelPositionMultiHeadedAttention(
          (linear_q): Linear(in_features=256, out_features=256, bias=True)
          (linear_k): Linear(in_features=256, out_features=256, bias=True)
          (linear_v): Linear(in_features=256, out_features=256, bias=True)
          (linear_out): Linear(in_features=256, out_features=256, bias=True)
          (dropout): Dropout(p=0.1, inplace=False)
          (q_norm): Identity()
          (k_norm): Identity()
          (linear_pos): Linear(in_features=256, out_features=256, bias=False)
        )
        (cgmlp): ConvolutionalGatingMLP(
          (channel_proj1): Sequential(
            (0): Linear(in_features=256, out_features=1024, bias=True)
            (1): GELU(approximate='none')
          )
          (csgu): ConvolutionalSpatialGatingUnit(
            (norm): LayerNorm((512,), eps=1e-12, elementwise_affine=True)
            (conv): Conv1d(512, 512, kernel_size=(31,), stride=(1,), padding=(15,), groups=512)
            (act): Identity()
            (dropout): Dropout(p=0.1, inplace=False)
          )
          (channel_proj2): Linear(in_features=512, out_features=256, bias=True)
        )
        (feed_forward): PositionwiseFeedForward(
          (w_1): Linear(in_features=256, out_features=1024, bias=True)
          (w_2): Linear(in_features=1024, out_features=256, bias=True)
          (dropout): Dropout(p=0.1, inplace=False)
          (activation): Swish()
        )
        (feed_forward_macaron): PositionwiseFeedForward(
          (w_1): Linear(in_features=256, out_features=1024, bias=True)
          (w_2): Linear(in_features=1024, out_features=256, bias=True)
          (dropout): Dropout(p=0.1, inplace=False)
          (activation): Swish()
        )
        (norm_ff): LayerNorm((256,), eps=1e-12, elementwise_affine=True)
        (norm_ff_macaron): LayerNorm((256,), eps=1e-12, elementwise_affine=True)
        (norm_mha): LayerNorm((256,), eps=1e-12, elementwise_affine=True)
        (norm_mlp): LayerNorm((256,), eps=1e-12, elementwise_affine=True)
        (norm_final): LayerNorm((256,), eps=1e-12, elementwise_affine=True)
        (dropout): Dropout(p=0.1, inplace=False)
        (depthwise_conv_fusion): Conv1d(512, 512, kernel_size=(31,), stride=(1,), padding=(15,), groups=512)
        (merge_proj): Linear(in_features=512, out_features=256, bias=True)
      )
      (9): EBranchformerEncoderLayer(
        (attn): RelPositionMultiHeadedAttention(
          (linear_q): Linear(in_features=256, out_features=256, bias=True)
          (linear_k): Linear(in_features=256, out_features=256, bias=True)
          (linear_v): Linear(in_features=256, out_features=256, bias=True)
          (linear_out): Linear(in_features=256, out_features=256, bias=True)
          (dropout): Dropout(p=0.1, inplace=False)
          (q_norm): Identity()
          (k_norm): Identity()
          (linear_pos): Linear(in_features=256, out_features=256, bias=False)
        )
        (cgmlp): ConvolutionalGatingMLP(
          (channel_proj1): Sequential(
            (0): Linear(in_features=256, out_features=1024, bias=True)
            (1): GELU(approximate='none')
          )
          (csgu): ConvolutionalSpatialGatingUnit(
            (norm): LayerNorm((512,), eps=1e-12, elementwise_affine=True)
            (conv): Conv1d(512, 512, kernel_size=(31,), stride=(1,), padding=(15,), groups=512)
            (act): Identity()
            (dropout): Dropout(p=0.1, inplace=False)
          )
          (channel_proj2): Linear(in_features=512, out_features=256, bias=True)
        )
        (feed_forward): PositionwiseFeedForward(
          (w_1): Linear(in_features=256, out_features=1024, bias=True)
          (w_2): Linear(in_features=1024, out_features=256, bias=True)
          (dropout): Dropout(p=0.1, inplace=False)
          (activation): Swish()
        )
        (feed_forward_macaron): PositionwiseFeedForward(
          (w_1): Linear(in_features=256, out_features=1024, bias=True)
          (w_2): Linear(in_features=1024, out_features=256, bias=True)
          (dropout): Dropout(p=0.1, inplace=False)
          (activation): Swish()
        )
        (norm_ff): LayerNorm((256,), eps=1e-12, elementwise_affine=True)
        (norm_ff_macaron): LayerNorm((256,), eps=1e-12, elementwise_affine=True)
        (norm_mha): LayerNorm((256,), eps=1e-12, elementwise_affine=True)
        (norm_mlp): LayerNorm((256,), eps=1e-12, elementwise_affine=True)
        (norm_final): LayerNorm((256,), eps=1e-12, elementwise_affine=True)
        (dropout): Dropout(p=0.1, inplace=False)
        (depthwise_conv_fusion): Conv1d(512, 512, kernel_size=(31,), stride=(1,), padding=(15,), groups=512)
        (merge_proj): Linear(in_features=512, out_features=256, bias=True)
      )
      (10): EBranchformerEncoderLayer(
        (attn): RelPositionMultiHeadedAttention(
          (linear_q): Linear(in_features=256, out_features=256, bias=True)
          (linear_k): Linear(in_features=256, out_features=256, bias=True)
          (linear_v): Linear(in_features=256, out_features=256, bias=True)
          (linear_out): Linear(in_features=256, out_features=256, bias=True)
          (dropout): Dropout(p=0.1, inplace=False)
          (q_norm): Identity()
          (k_norm): Identity()
          (linear_pos): Linear(in_features=256, out_features=256, bias=False)
        )
        (cgmlp): ConvolutionalGatingMLP(
          (channel_proj1): Sequential(
            (0): Linear(in_features=256, out_features=1024, bias=True)
            (1): GELU(approximate='none')
          )
          (csgu): ConvolutionalSpatialGatingUnit(
            (norm): LayerNorm((512,), eps=1e-12, elementwise_affine=True)
            (conv): Conv1d(512, 512, kernel_size=(31,), stride=(1,), padding=(15,), groups=512)
            (act): Identity()
            (dropout): Dropout(p=0.1, inplace=False)
          )
          (channel_proj2): Linear(in_features=512, out_features=256, bias=True)
        )
        (feed_forward): PositionwiseFeedForward(
          (w_1): Linear(in_features=256, out_features=1024, bias=True)
          (w_2): Linear(in_features=1024, out_features=256, bias=True)
          (dropout): Dropout(p=0.1, inplace=False)
          (activation): Swish()
        )
        (feed_forward_macaron): PositionwiseFeedForward(
          (w_1): Linear(in_features=256, out_features=1024, bias=True)
          (w_2): Linear(in_features=1024, out_features=256, bias=True)
          (dropout): Dropout(p=0.1, inplace=False)
          (activation): Swish()
        )
        (norm_ff): LayerNorm((256,), eps=1e-12, elementwise_affine=True)
        (norm_ff_macaron): LayerNorm((256,), eps=1e-12, elementwise_affine=True)
        (norm_mha): LayerNorm((256,), eps=1e-12, elementwise_affine=True)
        (norm_mlp): LayerNorm((256,), eps=1e-12, elementwise_affine=True)
        (norm_final): LayerNorm((256,), eps=1e-12, elementwise_affine=True)
        (dropout): Dropout(p=0.1, inplace=False)
        (depthwise_conv_fusion): Conv1d(512, 512, kernel_size=(31,), stride=(1,), padding=(15,), groups=512)
        (merge_proj): Linear(in_features=512, out_features=256, bias=True)
      )
      (11): EBranchformerEncoderLayer(
        (attn): RelPositionMultiHeadedAttention(
          (linear_q): Linear(in_features=256, out_features=256, bias=True)
          (linear_k): Linear(in_features=256, out_features=256, bias=True)
          (linear_v): Linear(in_features=256, out_features=256, bias=True)
          (linear_out): Linear(in_features=256, out_features=256, bias=True)
          (dropout): Dropout(p=0.1, inplace=False)
          (q_norm): Identity()
          (k_norm): Identity()
          (linear_pos): Linear(in_features=256, out_features=256, bias=False)
        )
        (cgmlp): ConvolutionalGatingMLP(
          (channel_proj1): Sequential(
            (0): Linear(in_features=256, out_features=1024, bias=True)
            (1): GELU(approximate='none')
          )
          (csgu): ConvolutionalSpatialGatingUnit(
            (norm): LayerNorm((512,), eps=1e-12, elementwise_affine=True)
            (conv): Conv1d(512, 512, kernel_size=(31,), stride=(1,), padding=(15,), groups=512)
            (act): Identity()
            (dropout): Dropout(p=0.1, inplace=False)
          )
          (channel_proj2): Linear(in_features=512, out_features=256, bias=True)
        )
        (feed_forward): PositionwiseFeedForward(
          (w_1): Linear(in_features=256, out_features=1024, bias=True)
          (w_2): Linear(in_features=1024, out_features=256, bias=True)
          (dropout): Dropout(p=0.1, inplace=False)
          (activation): Swish()
        )
        (feed_forward_macaron): PositionwiseFeedForward(
          (w_1): Linear(in_features=256, out_features=1024, bias=True)
          (w_2): Linear(in_features=1024, out_features=256, bias=True)
          (dropout): Dropout(p=0.1, inplace=False)
          (activation): Swish()
        )
        (norm_ff): LayerNorm((256,), eps=1e-12, elementwise_affine=True)
        (norm_ff_macaron): LayerNorm((256,), eps=1e-12, elementwise_affine=True)
        (norm_mha): LayerNorm((256,), eps=1e-12, elementwise_affine=True)
        (norm_mlp): LayerNorm((256,), eps=1e-12, elementwise_affine=True)
        (norm_final): LayerNorm((256,), eps=1e-12, elementwise_affine=True)
        (dropout): Dropout(p=0.1, inplace=False)
        (depthwise_conv_fusion): Conv1d(512, 512, kernel_size=(31,), stride=(1,), padding=(15,), groups=512)
        (merge_proj): Linear(in_features=512, out_features=256, bias=True)
      )
    )
    (after_norm): LayerNorm((256,), eps=1e-12, elementwise_affine=True)
  )
  (criterion_mt): LabelSmoothingLoss(
    (criterion): KLDivLoss()
  )
  (specaug): SpecAug(
    (time_mask): MaskAlongAxisVariableMaxWidth(mask_width_ratio_range=[0.0, 0.05], num_mask=10, axis=time)
  )
  (ctc): CTC(
    (ctc_lo): Linear(in_features=256, out_features=5000, bias=True)
    (ctc_loss): CTCLoss()
  )
)

Model summary:
    Class Name: ESPnetDiscreteASRModel
    Total Number of model parameters: 28.32 M
    Number of trainable parameters: 28.32 M (100.0%)
    Size: 113.3 MB
    Type: torch.float32
[lambda-Lambda-Vector] 2024-12-12 21:23:24,094 (abs_task:1391) INFO: Optimizer:
Adam (
Parameter Group 0
    amsgrad: False
    betas: (0.9, 0.999)
…
