…
e --train_shape_file exp/asr_stats_raw_rm_wavlm_large_21_km2000_bpe6000_bpe5000/train/text_shape.bpe --ngpu 1 --multiprocessing_distributed True
[SPAPL-Psychic] 2024-10-25 22:41:53,906 (mt:347) INFO: Vocabulary size: 5000
[SPAPL-Psychic] 2024-10-25 22:41:53,907 (mt:361) INFO: Source vocabulary size: 6000
[SPAPL-Psychic] 2024-10-25 22:41:54,827 (abs_task:1387) INFO: pytorch.version=2.3.0+cu121, cuda.available=True, cudnn.version=8902, cudnn.benchmark=False, cudnn.deterministic=True
[SPAPL-Psychic] 2024-10-25 22:41:54,834 (abs_task:1388) INFO: Model structure:
ESPnetDiscreteASRModel(
  (frontend): Embedding(
    (embed): Sequential(
      (0): Embedding(6000, 512)
      (1): PositionalEncoding(
        (dropout): Dropout(p=0.1, inplace=False)
      )
    )
  )
  (encoder): EBranchformerEncoder(
    (embed): Conv1dSubsampling2(
      (conv): Sequential(
        (0): Conv1d(512, 256, kernel_size=(3,), stride=(1,))
        (1): ReLU()
        (2): Conv1d(256, 256, kernel_size=(3,), stride=(2,))
        (3): ReLU()
      )
      (out): Sequential(
        (0): Linear(in_features=256, out_features=256, bias=True)
        (1): RelPositionalEncoding(
          (dropout): Dropout(p=0.1, inplace=False)
        )
      )
    )
    (encoders): MultiSequential(
      (0): EBranchformerEncoderLayer(
        (attn): RelPositionMultiHeadedAttention(
          (linear_q): Linear(in_features=256, out_features=256, bias=True)
          (linear_k): Linear(in_features=256, out_features=256, bias=True)
          (linear_v): Linear(in_features=256, out_features=256, bias=True)
          (linear_out): Linear(in_features=256, out_features=256, bias=True)
          (dropout): Dropout(p=0.1, inplace=False)
          (q_norm): Identity()
          (k_norm): Identity()
          (linear_pos): Linear(in_features=256, out_features=256, bias=False)
        )
        (cgmlp): ConvolutionalGatingMLP(
          (channel_proj1): Sequential(
            (0): Linear(in_features=256, out_features=1024, bias=True)
            (1): GELU(approximate='none')
          )
          (csgu): ConvolutionalSpatialGatingUnit(
            (norm): LayerNorm((512,), eps=1e-12, elementwise_affine=True)
            (conv): Conv1d(512, 512, kernel_size=(31,), stride=(1,), padding=(15,), groups=512)
            (act): Identity()
            (dropout): Dropout(p=0.1, inplace=False)
          )
          (channel_proj2): Linear(in_features=512, out_features=256, bias=True)
        )
        (feed_forward): PositionwiseFeedForward(
          (w_1): Linear(in_features=256, out_features=1024, bias=True)
          (w_2): Linear(in_features=1024, out_features=256, bias=True)
          (dropout): Dropout(p=0.1, inplace=False)
          (activation): Swish()
        )
        (feed_forward_macaron): PositionwiseFeedForward(
          (w_1): Linear(in_features=256, out_features=1024, bias=True)
          (w_2): Linear(in_features=1024, out_features=256, bias=True)
          (dropout): Dropout(p=0.1, inplace=False)
          (activation): Swish()
        )
        (norm_ff): LayerNorm((256,), eps=1e-12, elementwise_affine=True)
        (norm_ff_macaron): LayerNorm((256,), eps=1e-12, elementwise_affine=True)
        (norm_mha): LayerNorm((256,), eps=1e-12, elementwise_affine=True)
        (norm_mlp): LayerNorm((256,), eps=1e-12, elementwise_affine=True)
        (norm_final): LayerNorm((256,), eps=1e-12, elementwise_affine=True)
        (dropout): Dropout(p=0.1, inplace=False)
        (depthwise_conv_fusion): Conv1d(512, 512, kernel_size=(31,), stride=(1,), padding=(15,), groups=512)
        (merge_proj): Linear(in_features=512, out_features=256, bias=True)
      )
      (1): EBranchformerEncoderLayer(
        (attn): RelPositionMultiHeadedAttention(
          (linear_q): Linear(in_features=256, out_features=256, bias=True)
          (linear_k): Linear(in_features=256, out_features=256, bias=True)
          (linear_v): Linear(in_features=256, out_features=256, bias=True)
          (linear_out): Linear(in_features=256, out_features=256, bias=True)
          (dropout): Dropout(p=0.1, inplace=False)
          (q_norm): Identity()
          (k_norm): Identity()
          (linear_pos): Linear(in_features=256, out_features=256, bias=False)
        )
        (cgmlp): ConvolutionalGatingMLP(
          (channel_proj1): Sequential(
            (0): Linear(in_features=256, out_features=1024, bias=True)
            (1): GELU(approximate='none')
          )
          (csgu): ConvolutionalSpatialGatingUnit(
            (norm): LayerNorm((512,), eps=1e-12, elementwise_affine=True)
            (conv): Conv1d(512, 512, kernel_size=(31,), stride=(1,), padding=(15,), groups=512)
            (act): Identity()
            (dropout): Dropout(p=0.1, inplace=False)
          )
          (channel_proj2): Linear(in_features=512, out_features=256, bias=True)
        )
        (feed_forward): PositionwiseFeedForward(
          (w_1): Linear(in_features=256, out_features=1024, bias=True)
          (w_2): Linear(in_features=1024, out_features=256, bias=True)
          (dropout): Dropout(p=0.1, inplace=False)
          (activation): Swish()
        )
        (feed_forward_macaron): PositionwiseFeedForward(
          (w_1): Linear(in_features=256, out_features=1024, bias=True)
          (w_2): Linear(in_features=1024, out_features=256, bias=True)
          (dropout): Dropout(p=0.1, inplace=False)
          (activation): Swish()
        )
        (norm_ff): LayerNorm((256,), eps=1e-12, elementwise_affine=True)
        (norm_ff_macaron): LayerNorm((256,), eps=1e-12, elementwise_affine=True)
        (norm_mha): LayerNorm((256,), eps=1e-12, elementwise_affine=True)
        (norm_mlp): LayerNorm((256,), eps=1e-12, elementwise_affine=True)
        (norm_final): LayerNorm((256,), eps=1e-12, elementwise_affine=True)
        (dropout): Dropout(p=0.1, inplace=False)
        (depthwise_conv_fusion): Conv1d(512, 512, kernel_size=(31,), stride=(1,), padding=(15,), groups=512)
        (merge_proj): Linear(in_features=512, out_features=256, bias=True)
      )
      (2): EBranchformerEncoderLayer(
        (attn): RelPositionMultiHeadedAttention(
          (linear_q): Linear(in_features=256, out_features=256, bias=True)
          (linear_k): Linear(in_features=256, out_features=256, bias=True)
          (linear_v): Linear(in_features=256, out_features=256, bias=True)
          (linear_out): Linear(in_features=256, out_features=256, bias=True)
          (dropout): Dropout(p=0.1, inplace=False)
          (q_norm): Identity()
          (k_norm): Identity()
          (linear_pos): Linear(in_features=256, out_features=256, bias=False)
        )
        (cgmlp): ConvolutionalGatingMLP(
          (channel_proj1): Sequential(
            (0): Linear(in_features=256, out_features=1024, bias=True)
            (1): GELU(approximate='none')
          )
          (csgu): ConvolutionalSpatialGatingUnit(
            (norm): LayerNorm((512,), eps=1e-12, elementwise_affine=True)
            (conv): Conv1d(512, 512, kernel_size=(31,), stride=(1,), padding=(15,), groups=512)
            (act): Identity()
            (dropout): Dropout(p=0.1, inplace=False)
          )
          (channel_proj2): Linear(in_features=512, out_features=256, bias=True)
        )
        (feed_forward): PositionwiseFeedForward(
          (w_1): Linear(in_features=256, out_features=1024, bias=True)
          (w_2): Linear(in_features=1024, out_features=256, bias=True)
          (dropout): Dropout(p=0.1, inplace=False)
          (activation): Swish()
        )
        (feed_forward_macaron): PositionwiseFeedForward(
          (w_1): Linear(in_features=256, out_features=1024, bias=True)
          (w_2): Linear(in_features=1024, out_features=256, bias=True)
          (dropout): Dropout(p=0.1, inplace=False)
          (activation): Swish()
        )
        (norm_ff): LayerNorm((256,), eps=1e-12, elementwise_affine=True)
        (norm_ff_macaron): LayerNorm((256,), eps=1e-12, elementwise_affine=True)
        (norm_mha): LayerNorm((256,), eps=1e-12, elementwise_affine=True)
        (norm_mlp): LayerNorm((256,), eps=1e-12, elementwise_affine=True)
        (norm_final): LayerNorm((256,), eps=1e-12, elementwise_affine=True)
        (dropout): Dropout(p=0.1, inplace=False)
        (depthwise_conv_fusion): Conv1d(512, 512, kernel_size=(31,), stride=(1,), padding=(15,), groups=512)
        (merge_proj): Linear(in_features=512, out_features=256, bias=True)
      )
      (3): EBranchformerEncoderLayer(
        (attn): RelPositionMultiHeadedAttention(
          (linear_q): Linear(in_features=256, out_features=256, bias=True)
          (linear_k): Linear(in_features=256, out_features=256, bias=True)
          (linear_v): Linear(in_features=256, out_features=256, bias=True)
          (linear_out): Linear(in_features=256, out_features=256, bias=True)
          (dropout): Dropout(p=0.1, inplace=False)
          (q_norm): Identity()
          (k_norm): Identity()
          (linear_pos): Linear(in_features=256, out_features=256, bias=False)
        )
        (cgmlp): ConvolutionalGatingMLP(
          (channel_proj1): Sequential(
            (0): Linear(in_features=256, out_features=1024, bias=True)
            (1): GELU(approximate='none')
          )
          (csgu): ConvolutionalSpatialGatingUnit(
            (norm): LayerNorm((512,), eps=1e-12, elementwise_affine=True)
            (conv): Conv1d(512, 512, kernel_size=(31,), stride=(1,), padding=(15,), groups=512)
            (act): Identity()
            (dropout): Dropout(p=0.1, inplace=False)
          )
          (channel_proj2): Linear(in_features=512, out_features=256, bias=True)
        )
        (feed_forward): PositionwiseFeedForward(
          (w_1): Linear(in_features=256, out_features=1024, bias=True)
          (w_2): Linear(in_features=1024, out_features=256, bias=True)
          (dropout): Dropout(p=0.1, inplace=False)
          (activation): Swish()
        )
        (feed_forward_macaron): PositionwiseFeedForward(
          (w_1): Linear(in_features=256, out_features=1024, bias=True)
          (w_2): Linear(in_features=1024, out_features=256, bias=True)
          (dropout): Dropout(p=0.1, inplace=False)
          (activation): Swish()
        )
        (norm_ff): LayerNorm((256,), eps=1e-12, elementwise_affine=True)
        (norm_ff_macaron): LayerNorm((256,), eps=1e-12, elementwise_affine=True)
        (norm_mha): LayerNorm((256,), eps=1e-12, elementwise_affine=True)
        (norm_mlp): LayerNorm((256,), eps=1e-12, elementwise_affine=True)
        (norm_final): LayerNorm((256,), eps=1e-12, elementwise_affine=True)
        (dropout): Dropout(p=0.1, inplace=False)
        (depthwise_conv_fusion): Conv1d(512, 512, kernel_size=(31,), stride=(1,), padding=(15,), groups=512)
        (merge_proj): Linear(in_features=512, out_features=256, bias=True)
      )
      (4): EBranchformerEncoderLayer(
        (attn): RelPositionMultiHeadedAttention(
          (linear_q): Linear(in_features=256, out_features=256, bias=True)
          (linear_k): Linear(in_features=256, out_features=256, bias=True)
          (linear_v): Linear(in_features=256, out_features=256, bias=True)
          (linear_out): Linear(in_features=256, out_features=256, bias=True)
          (dropout): Dropout(p=0.1, inplace=False)
          (q_norm): Identity()
          (k_norm): Identity()
          (linear_pos): Linear(in_features=256, out_features=256, bias=False)
        )
        (cgmlp): ConvolutionalGatingMLP(
          (channel_proj1): Sequential(
            (0): Linear(in_features=256, out_features=1024, bias=True)
            (1): GELU(approximate='none')
          )
          (csgu): ConvolutionalSpatialGatingUnit(
            (norm): LayerNorm((512,), eps=1e-12, elementwise_affine=True)
            (conv): Conv1d(512, 512, kernel_size=(31,), stride=(1,), padding=(15,), groups=512)
            (act): Identity()
            (dropout): Dropout(p=0.1, inplace=False)
          )
          (channel_proj2): Linear(in_features=512, out_features=256, bias=True)
        )
        (feed_forward): PositionwiseFeedForward(
          (w_1): Linear(in_features=256, out_features=1024, bias=True)
          (w_2): Linear(in_features=1024, out_features=256, bias=True)
          (dropout): Dropout(p=0.1, inplace=False)
          (activation): Swish()
        )
        (feed_forward_macaron): PositionwiseFeedForward(
          (w_1): Linear(in_features=256, out_features=1024, bias=True)
          (w_2): Linear(in_features=1024, out_features=256, bias=True)
          (dropout): Dropout(p=0.1, inplace=False)
          (activation): Swish()
        )
        (norm_ff): LayerNorm((256,), eps=1e-12, elementwise_affine=True)
        (norm_ff_macaron): LayerNorm((256,), eps=1e-12, elementwise_affine=True)
        (norm_mha): LayerNorm((256,), eps=1e-12, elementwise_affine=True)
        (norm_mlp): LayerNorm((256,), eps=1e-12, elementwise_affine=True)
        (norm_final): LayerNorm((256,), eps=1e-12, elementwise_affine=True)
        (dropout): Dropout(p=0.1, inplace=False)
        (depthwise_conv_fusion): Conv1d(512, 512, kernel_size=(31,), stride=(1,), padding=(15,), groups=512)
        (merge_proj): Linear(in_features=512, out_features=256, bias=True)
      )
      (5): EBranchformerEncoderLayer(
        (attn): RelPositionMultiHeadedAttention(
          (linear_q): Linear(in_features=256, out_features=256, bias=True)
          (linear_k): Linear(in_features=256, out_features=256, bias=True)
          (linear_v): Linear(in_features=256, out_features=256, bias=True)
          (linear_out): Linear(in_features=256, out_features=256, bias=True)
          (dropout): Dropout(p=0.1, inplace=False)
          (q_norm): Identity()
          (k_norm): Identity()
          (linear_pos): Linear(in_features=256, out_features=256, bias=False)
        )
        (cgmlp): ConvolutionalGatingMLP(
          (channel_proj1): Sequential(
            (0): Linear(in_features=256, out_features=1024, bias=True)
            (1): GELU(approximate='none')
          )
          (csgu): ConvolutionalSpatialGatingUnit(
            (norm): LayerNorm((512,), eps=1e-12, elementwise_affine=True)
            (conv): Conv1d(512, 512, kernel_size=(31,), stride=(1,), padding=(15,), groups=512)
            (act): Identity()
            (dropout): Dropout(p=0.1, inplace=False)
          )
          (channel_proj2): Linear(in_features=512, out_features=256, bias=True)
        )
        (feed_forward): PositionwiseFeedForward(
          (w_1): Linear(in_features=256, out_features=1024, bias=True)
          (w_2): Linear(in_features=1024, out_features=256, bias=True)
          (dropout): Dropout(p=0.1, inplace=False)
          (activation): Swish()
        )
        (feed_forward_macaron): PositionwiseFeedForward(
          (w_1): Linear(in_features=256, out_features=1024, bias=True)
          (w_2): Linear(in_features=1024, out_features=256, bias=True)
          (dropout): Dropout(p=0.1, inplace=False)
          (activation): Swish()
        )
        (norm_ff): LayerNorm((256,), eps=1e-12, elementwise_affine=True)
        (norm_ff_macaron): LayerNorm((256,), eps=1e-12, elementwise_affine=True)
        (norm_mha): LayerNorm((256,), eps=1e-12, elementwise_affine=True)
        (norm_mlp): LayerNorm((256,), eps=1e-12, elementwise_affine=True)
        (norm_final): LayerNorm((256,), eps=1e-12, elementwise_affine=True)
        (dropout): Dropout(p=0.1, inplace=False)
        (depthwise_conv_fusion): Conv1d(512, 512, kernel_size=(31,), stride=(1,), padding=(15,), groups=512)
        (merge_proj): Linear(in_features=512, out_features=256, bias=True)
      )
      (6): EBranchformerEncoderLayer(
        (attn): RelPositionMultiHeadedAttention(
          (linear_q): Linear(in_features=256, out_features=256, bias=True)
          (linear_k): Linear(in_features=256, out_features=256, bias=True)
          (linear_v): Linear(in_features=256, out_features=256, bias=True)
          (linear_out): Linear(in_features=256, out_features=256, bias=True)
          (dropout): Dropout(p=0.1, inplace=False)
          (q_norm): Identity()
          (k_norm): Identity()
          (linear_pos): Linear(in_features=256, out_features=256, bias=False)
        )
        (cgmlp): ConvolutionalGatingMLP(
          (channel_proj1): Sequential(
            (0): Linear(in_features=256, out_features=1024, bias=True)
            (1): GELU(approximate='none')
          )
          (csgu): ConvolutionalSpatialGatingUnit(
            (norm): LayerNorm((512,), eps=1e-12, elementwise_affine=True)
            (conv): Conv1d(512, 512, kernel_size=(31,), stride=(1,), padding=(15,), groups=512)
            (act): Identity()
            (dropout): Dropout(p=0.1, inplace=False)
          )
          (channel_proj2): Linear(in_features=512, out_features=256, bias=True)
        )
        (feed_forward): PositionwiseFeedForward(
          (w_1): Linear(in_features=256, out_features=1024, bias=True)
          (w_2): Linear(in_features=1024, out_features=256, bias=True)
          (dropout): Dropout(p=0.1, inplace=False)
          (activation): Swish()
        )
        (feed_forward_macaron): PositionwiseFeedForward(
          (w_1): Linear(in_features=256, out_features=1024, bias=True)
          (w_2): Linear(in_features=1024, out_features=256, bias=True)
          (dropout): Dropout(p=0.1, inplace=False)
          (activation): Swish()
        )
        (norm_ff): LayerNorm((256,), eps=1e-12, elementwise_affine=True)
        (norm_ff_macaron): LayerNorm((256,), eps=1e-12, elementwise_affine=True)
        (norm_mha): LayerNorm((256,), eps=1e-12, elementwise_affine=True)
        (norm_mlp): LayerNorm((256,), eps=1e-12, elementwise_affine=True)
        (norm_final): LayerNorm((256,), eps=1e-12, elementwise_affine=True)
        (dropout): Dropout(p=0.1, inplace=False)
        (depthwise_conv_fusion): Conv1d(512, 512, kernel_size=(31,), stride=(1,), padding=(15,), groups=512)
        (merge_proj): Linear(in_features=512, out_features=256, bias=True)
      )
      (7): EBranchformerEncoderLayer(
        (attn): RelPositionMultiHeadedAttention(
          (linear_q): Linear(in_features=256, out_features=256, bias=True)
          (linear_k): Linear(in_features=256, out_features=256, bias=True)
          (linear_v): Linear(in_features=256, out_features=256, bias=True)
          (linear_out): Linear(in_features=256, out_features=256, bias=True)
          (dropout): Dropout(p=0.1, inplace=False)
          (q_norm): Identity()
          (k_norm): Identity()
          (linear_pos): Linear(in_features=256, out_features=256, bias=False)
        )
        (cgmlp): ConvolutionalGatingMLP(
          (channel_proj1): Sequential(
            (0): Linear(in_features=256, out_features=1024, bias=True)
            (1): GELU(approximate='none')
          )
          (csgu): ConvolutionalSpatialGatingUnit(
            (norm): LayerNorm((512,), eps=1e-12, elementwise_affine=True)
            (conv): Conv1d(512, 512, kernel_size=(31,), stride=(1,), padding=(15,), groups=512)
            (act): Identity()
            (dropout): Dropout(p=0.1, inplace=False)
          )
          (channel_proj2): Linear(in_features=512, out_features=256, bias=True)
        )
        (feed_forward): PositionwiseFeedForward(
          (w_1): Linear(in_features=256, out_features=1024, bias=True)
          (w_2): Linear(in_features=1024, out_features=256, bias=True)
          (dropout): Dropout(p=0.1, inplace=False)
          (activation): Swish()
        )
        (feed_forward_macaron): PositionwiseFeedForward(
          (w_1): Linear(in_features=256, out_features=1024, bias=True)
          (w_2): Linear(in_features=1024, out_features=256, bias=True)
          (dropout): Dropout(p=0.1, inplace=False)
          (activation): Swish()
        )
        (norm_ff): LayerNorm((256,), eps=1e-12, elementwise_affine=True)
        (norm_ff_macaron): LayerNorm((256,), eps=1e-12, elementwise_affine=True)
        (norm_mha): LayerNorm((256,), eps=1e-12, elementwise_affine=True)
        (norm_mlp): LayerNorm((256,), eps=1e-12, elementwise_affine=True)
        (norm_final): LayerNorm((256,), eps=1e-12, elementwise_affine=True)
        (dropout): Dropout(p=0.1, inplace=False)
        (depthwise_conv_fusion): Conv1d(512, 512, kernel_size=(31,), stride=(1,), padding=(15,), groups=512)
        (merge_proj): Linear(in_features=512, out_features=256, bias=True)
      )
      (8): EBranchformerEncoderLayer(
        (attn): RelPositionMultiHeadedAttention(
          (linear_q): Linear(in_features=256, out_features=256, bias=True)
          (linear_k): Linear(in_features=256, out_features=256, bias=True)
          (linear_v): Linear(in_features=256, out_features=256, bias=True)
          (linear_out): Linear(in_features=256, out_features=256, bias=True)
          (dropout): Dropout(p=0.1, inplace=False)
          (q_norm): Identity()
          (k_norm): Identity()
          (linear_pos): Linear(in_features=256, out_features=256, bias=False)
        )
        (cgmlp): ConvolutionalGatingMLP(
          (channel_proj1): Sequential(
            (0): Linear(in_features=256, out_features=1024, bias=True)
            (1): GELU(approximate='none')
          )
          (csgu): ConvolutionalSpatialGatingUnit(
            (norm): LayerNorm((512,), eps=1e-12, elementwise_affine=True)
            (conv): Conv1d(512, 512, kernel_size=(31,), stride=(1,), padding=(15,), groups=512)
            (act): Identity()
            (dropout): Dropout(p=0.1, inplace=False)
          )
          (channel_proj2): Linear(in_features=512, out_features=256, bias=True)
        )
        (feed_forward): PositionwiseFeedForward(
          (w_1): Linear(in_features=256, out_features=1024, bias=True)
          (w_2): Linear(in_features=1024, out_features=256, bias=True)
          (dropout): Dropout(p=0.1, inplace=False)
          (activation): Swish()
        )
        (feed_forward_macaron): PositionwiseFeedForward(
          (w_1): Linear(in_features=256, out_features=1024, bias=True)
          (w_2): Linear(in_features=1024, out_features=256, bias=True)
          (dropout): Dropout(p=0.1, inplace=False)
          (activation): Swish()
        )
        (norm_ff): LayerNorm((256,), eps=1e-12, elementwise_affine=True)
        (norm_ff_macaron): LayerNorm((256,), eps=1e-12, elementwise_affine=True)
        (norm_mha): LayerNorm((256,), eps=1e-12, elementwise_affine=True)
        (norm_mlp): LayerNorm((256,), eps=1e-12, elementwise_affine=True)
        (norm_final): LayerNorm((256,), eps=1e-12, elementwise_affine=True)
        (dropout): Dropout(p=0.1, inplace=False)
        (depthwise_conv_fusion): Conv1d(512, 512, kernel_size=(31,), stride=(1,), padding=(15,), groups=512)
        (merge_proj): Linear(in_features=512, out_features=256, bias=True)
      )
      (9): EBranchformerEncoderLayer(
        (attn): RelPositionMultiHeadedAttention(
          (linear_q): Linear(in_features=256, out_features=256, bias=True)
          (linear_k): Linear(in_features=256, out_features=256, bias=True)
          (linear_v): Linear(in_features=256, out_features=256, bias=True)
          (linear_out): Linear(in_features=256, out_features=256, bias=True)
          (dropout): Dropout(p=0.1, inplace=False)
          (q_norm): Identity()
          (k_norm): Identity()
          (linear_pos): Linear(in_features=256, out_features=256, bias=False)
        )
        (cgmlp): ConvolutionalGatingMLP(
          (channel_proj1): Sequential(
            (0): Linear(in_features=256, out_features=1024, bias=True)
            (1): GELU(approximate='none')
          )
          (csgu): ConvolutionalSpatialGatingUnit(
            (norm): LayerNorm((512,), eps=1e-12, elementwise_affine=True)
            (conv): Conv1d(512, 512, kernel_size=(31,), stride=(1,), padding=(15,), groups=512)
            (act): Identity()
            (dropout): Dropout(p=0.1, inplace=False)
          )
          (channel_proj2): Linear(in_features=512, out_features=256, bias=True)
        )
        (feed_forward): PositionwiseFeedForward(
          (w_1): Linear(in_features=256, out_features=1024, bias=True)
          (w_2): Linear(in_features=1024, out_features=256, bias=True)
          (dropout): Dropout(p=0.1, inplace=False)
          (activation): Swish()
        )
        (feed_forward_macaron): PositionwiseFeedForward(
          (w_1): Linear(in_features=256, out_features=1024, bias=True)
          (w_2): Linear(in_features=1024, out_features=256, bias=True)
          (dropout): Dropout(p=0.1, inplace=False)
          (activation): Swish()
        )
        (norm_ff): LayerNorm((256,), eps=1e-12, elementwise_affine=True)
        (norm_ff_macaron): LayerNorm((256,), eps=1e-12, elementwise_affine=True)
        (norm_mha): LayerNorm((256,), eps=1e-12, elementwise_affine=True)
        (norm_mlp): LayerNorm((256,), eps=1e-12, elementwise_affine=True)
        (norm_final): LayerNorm((256,), eps=1e-12, elementwise_affine=True)
        (dropout): Dropout(p=0.1, inplace=False)
        (depthwise_conv_fusion): Conv1d(512, 512, kernel_size=(31,), stride=(1,), padding=(15,), groups=512)
        (merge_proj): Linear(in_features=512, out_features=256, bias=True)
      )
      (10): EBranchformerEncoderLayer(
        (attn): RelPositionMultiHeadedAttention(
          (linear_q): Linear(in_features=256, out_features=256, bias=True)
          (linear_k): Linear(in_features=256, out_features=256, bias=True)
          (linear_v): Linear(in_features=256, out_features=256, bias=True)
          (linear_out): Linear(in_features=256, out_features=256, bias=True)
          (dropout): Dropout(p=0.1, inplace=False)
          (q_norm): Identity()
          (k_norm): Identity()
          (linear_pos): Linear(in_features=256, out_features=256, bias=False)
        )
        (cgmlp): ConvolutionalGatingMLP(
          (channel_proj1): Sequential(
            (0): Linear(in_features=256, out_features=1024, bias=True)
            (1): GELU(approximate='none')
          )
          (csgu): ConvolutionalSpatialGatingUnit(
            (norm): LayerNorm((512,), eps=1e-12, elementwise_affine=True)
            (conv): Conv1d(512, 512, kernel_size=(31,), stride=(1,), padding=(15,), groups=512)
            (act): Identity()
            (dropout): Dropout(p=0.1, inplace=False)
          )
          (channel_proj2): Linear(in_features=512, out_features=256, bias=True)
        )
        (feed_forward): PositionwiseFeedForward(
          (w_1): Linear(in_features=256, out_features=1024, bias=True)
          (w_2): Linear(in_features=1024, out_features=256, bias=True)
          (dropout): Dropout(p=0.1, inplace=False)
          (activation): Swish()
        )
        (feed_forward_macaron): PositionwiseFeedForward(
          (w_1): Linear(in_features=256, out_features=1024, bias=True)
          (w_2): Linear(in_features=1024, out_features=256, bias=True)
          (dropout): Dropout(p=0.1, inplace=False)
          (activation): Swish()
        )
        (norm_ff): LayerNorm((256,), eps=1e-12, elementwise_affine=True)
        (norm_ff_macaron): LayerNorm((256,), eps=1e-12, elementwise_affine=True)
        (norm_mha): LayerNorm((256,), eps=1e-12, elementwise_affine=True)
        (norm_mlp): LayerNorm((256,), eps=1e-12, elementwise_affine=True)
        (norm_final): LayerNorm((256,), eps=1e-12, elementwise_affine=True)
        (dropout): Dropout(p=0.1, inplace=False)
        (depthwise_conv_fusion): Conv1d(512, 512, kernel_size=(31,), stride=(1,), padding=(15,), groups=512)
        (merge_proj): Linear(in_features=512, out_features=256, bias=True)
      )
      (11): EBranchformerEncoderLayer(
        (attn): RelPositionMultiHeadedAttention(
          (linear_q): Linear(in_features=256, out_features=256, bias=True)
          (linear_k): Linear(in_features=256, out_features=256, bias=True)
          (linear_v): Linear(in_features=256, out_features=256, bias=True)
          (linear_out): Linear(in_features=256, out_features=256, bias=True)
          (dropout): Dropout(p=0.1, inplace=False)
          (q_norm): Identity()
          (k_norm): Identity()
          (linear_pos): Linear(in_features=256, out_features=256, bias=False)
        )
        (cgmlp): ConvolutionalGatingMLP(
          (channel_proj1): Sequential(
            (0): Linear(in_features=256, out_features=1024, bias=True)
            (1): GELU(approximate='none')
          )
          (csgu): ConvolutionalSpatialGatingUnit(
            (norm): LayerNorm((512,), eps=1e-12, elementwise_affine=True)
            (conv): Conv1d(512, 512, kernel_size=(31,), stride=(1,), padding=(15,), groups=512)
            (act): Identity()
            (dropout): Dropout(p=0.1, inplace=False)
          )
          (channel_proj2): Linear(in_features=512, out_features=256, bias=True)
        )
        (feed_forward): PositionwiseFeedForward(
          (w_1): Linear(in_features=256, out_features=1024, bias=True)
          (w_2): Linear(in_features=1024, out_features=256, bias=True)
          (dropout): Dropout(p=0.1, inplace=False)
          (activation): Swish()
        )
        (feed_forward_macaron): PositionwiseFeedForward(
          (w_1): Linear(in_features=256, out_features=1024, bias=True)
          (w_2): Linear(in_features=1024, out_features=256, bias=True)
          (dropout): Dropout(p=0.1, inplace=False)
          (activation): Swish()
        )
        (norm_ff): LayerNorm((256,), eps=1e-12, elementwise_affine=True)
        (norm_ff_macaron): LayerNorm((256,), eps=1e-12, elementwise_affine=True)
        (norm_mha): LayerNorm((256,), eps=1e-12, elementwise_affine=True)
        (norm_mlp): LayerNorm((256,), eps=1e-12, elementwise_affine=True)
        (norm_final): LayerNorm((256,), eps=1e-12, elementwise_affine=True)
        (dropout): Dropout(p=0.1, inplace=False)
        (depthwise_conv_fusion): Conv1d(512, 512, kernel_size=(31,), stride=(1,), padding=(15,), groups=512)
        (merge_proj): Linear(in_features=512, out_features=256, bias=True)
      )
    )
    (after_norm): LayerNorm((256,), eps=1e-12, elementwise_affine=True)
  )
  (decoder): TransformerDecoder(
    (embed): Sequential(
      (0): Embedding(5000, 256)
      (1): PositionalEncoding(
        (dropout): Dropout(p=0.1, inplace=False)
      )
    )
    (after_norm): LayerNorm((256,), eps=1e-12, elementwise_affine=True)
    (output_layer): Linear(in_features=256, out_features=5000, bias=True)
    (decoders): MultiSequential(
      (0): DecoderLayer(
        (self_attn): MultiHeadedAttention(
          (linear_q): Linear(in_features=256, out_features=256, bias=True)
          (linear_k): Linear(in_features=256, out_features=256, bias=True)
          (linear_v): Linear(in_features=256, out_features=256, bias=True)
          (linear_out): Linear(in_features=256, out_features=256, bias=True)
          (dropout): Dropout(p=0.1, inplace=False)
          (q_norm): Identity()
          (k_norm): Identity()
        )
        (src_attn): MultiHeadedAttention(
          (linear_q): Linear(in_features=256, out_features=256, bias=True)
          (linear_k): Linear(in_features=256, out_features=256, bias=True)
          (linear_v): Linear(in_features=256, out_features=256, bias=True)
          (linear_out): Linear(in_features=256, out_features=256, bias=True)
          (dropout): Dropout(p=0.1, inplace=False)
          (q_norm): Identity()
          (k_norm): Identity()
        )
        (feed_forward): PositionwiseFeedForward(
          (w_1): Linear(in_features=256, out_features=2048, bias=True)
          (w_2): Linear(in_features=2048, out_features=256, bias=True)
          (dropout): Dropout(p=0.1, inplace=False)
          (activation): ReLU()
        )
        (norm1): LayerNorm((256,), eps=1e-12, elementwise_affine=True)
        (norm2): LayerNorm((256,), eps=1e-12, elementwise_affine=True)
        (norm3): LayerNorm((256,), eps=1e-12, elementwise_affine=True)
        (dropout): Dropout(p=0.1, inplace=False)
      )
      (1): DecoderLayer(
        (self_attn): MultiHeadedAttention(
          (linear_q): Linear(in_features=256, out_features=256, bias=True)
          (linear_k): Linear(in_features=256, out_features=256, bias=True)
          (linear_v): Linear(in_features=256, out_features=256, bias=True)
          (linear_out): Linear(in_features=256, out_features=256, bias=True)
          (dropout): Dropout(p=0.1, inplace=False)
          (q_norm): Identity()
          (k_norm): Identity()
        )
        (src_attn): MultiHeadedAttention(
          (linear_q): Linear(in_features=256, out_features=256, bias=True)
          (linear_k): Linear(in_features=256, out_features=256, bias=True)
          (linear_v): Linear(in_features=256, out_features=256, bias=True)
          (linear_out): Linear(in_features=256, out_features=256, bias=True)
          (dropout): Dropout(p=0.1, inplace=False)
          (q_norm): Identity()
          (k_norm): Identity()
        )
        (feed_forward): PositionwiseFeedForward(
          (w_1): Linear(in_features=256, out_features=2048, bias=True)
          (w_2): Linear(in_features=2048, out_features=256, bias=True)
          (dropout): Dropout(p=0.1, inplace=False)
          (activation): ReLU()
        )
        (norm1): LayerNorm((256,), eps=1e-12, elementwise_affine=True)
        (norm2): LayerNorm((256,), eps=1e-12, elementwise_affine=True)
        (norm3): LayerNorm((256,), eps=1e-12, elementwise_affine=True)
        (dropout): Dropout(p=0.1, inplace=False)
      )
      (2): DecoderLayer(
        (self_attn): MultiHeadedAttention(
          (linear_q): Linear(in_features=256, out_features=256, bias=True)
          (linear_k): Linear(in_features=256, out_features=256, bias=True)
          (linear_v): Linear(in_features=256, out_features=256, bias=True)
          (linear_out): Linear(in_features=256, out_features=256, bias=True)
          (dropout): Dropout(p=0.1, inplace=False)
          (q_norm): Identity()
          (k_norm): Identity()
        )
        (src_attn): MultiHeadedAttention(
          (linear_q): Linear(in_features=256, out_features=256, bias=True)
          (linear_k): Linear(in_features=256, out_features=256, bias=True)
          (linear_v): Linear(in_features=256, out_features=256, bias=True)
          (linear_out): Linear(in_features=256, out_features=256, bias=True)
          (dropout): Dropout(p=0.1, inplace=False)
          (q_norm): Identity()
          (k_norm): Identity()
        )
        (feed_forward): PositionwiseFeedForward(
          (w_1): Linear(in_features=256, out_features=2048, bias=True)
          (w_2): Linear(in_features=2048, out_features=256, bias=True)
          (dropout): Dropout(p=0.1, inplace=False)
          (activation): ReLU()
        )
        (norm1): LayerNorm((256,), eps=1e-12, elementwise_affine=True)
        (norm2): LayerNorm((256,), eps=1e-12, elementwise_affine=True)
        (norm3): LayerNorm((256,), eps=1e-12, elementwise_affine=True)
        (dropout): Dropout(p=0.1, inplace=False)
      )
      (3): DecoderLayer(
        (self_attn): MultiHeadedAttention(
          (linear_q): Linear(in_features=256, out_features=256, bias=True)
          (linear_k): Linear(in_features=256, out_features=256, bias=True)
          (linear_v): Linear(in_features=256, out_features=256, bias=True)
          (linear_out): Linear(in_features=256, out_features=256, bias=True)
          (dropout): Dropout(p=0.1, inplace=False)
          (q_norm): Identity()
          (k_norm): Identity()
        )
        (src_attn): MultiHeadedAttention(
          (linear_q): Linear(in_features=256, out_features=256, bias=True)
          (linear_k): Linear(in_features=256, out_features=256, bias=True)
          (linear_v): Linear(in_features=256, out_features=256, bias=True)
          (linear_out): Linear(in_features=256, out_features=256, bias=True)
          (dropout): Dropout(p=0.1, inplace=False)
          (q_norm): Identity()
          (k_norm): Identity()
        )
        (feed_forward): PositionwiseFeedForward(
          (w_1): Linear(in_features=256, out_features=2048, bias=True)
          (w_2): Linear(in_features=2048, out_features=256, bias=True)
          (dropout): Dropout(p=0.1, inplace=False)
          (activation): ReLU()
        )
        (norm1): LayerNorm((256,), eps=1e-12, elementwise_affine=True)
        (norm2): LayerNorm((256,), eps=1e-12, elementwise_affine=True)
        (norm3): LayerNorm((256,), eps=1e-12, elementwise_affine=True)
        (dropout): Dropout(p=0.1, inplace=False)
      )
      (4): DecoderLayer(
        (self_attn): MultiHeadedAttention(
          (linear_q): Linear(in_features=256, out_features=256, bias=True)
          (linear_k): Linear(in_features=256, out_features=256, bias=True)
          (linear_v): Linear(in_features=256, out_features=256, bias=True)
          (linear_out): Linear(in_features=256, out_features=256, bias=True)
          (dropout): Dropout(p=0.1, inplace=False)
          (q_norm): Identity()
          (k_norm): Identity()
        )
        (src_attn): MultiHeadedAttention(
          (linear_q): Linear(in_features=256, out_features=256, bias=True)
          (linear_k): Linear(in_features=256, out_features=256, bias=True)
          (linear_v): Linear(in_features=256, out_features=256, bias=True)
          (linear_out): Linear(in_features=256, out_features=256, bias=True)
          (dropout): Dropout(p=0.1, inplace=False)
          (q_norm): Identity()
          (k_norm): Identity()
        )
        (feed_forward): PositionwiseFeedForward(
          (w_1): Linear(in_features=256, out_features=2048, bias=True)
          (w_2): Linear(in_features=2048, out_features=256, bias=True)
          (dropout): Dropout(p=0.1, inplace=False)
          (activation): ReLU()
        )
        (norm1): LayerNorm((256,), eps=1e-12, elementwise_affine=True)
        (norm2): LayerNorm((256,), eps=1e-12, elementwise_affine=True)
        (norm3): LayerNorm((256,), eps=1e-12, elementwise_affine=True)
        (dropout): Dropout(p=0.1, inplace=False)
      )
      (5): DecoderLayer(
        (self_attn): MultiHeadedAttention(
          (linear_q): Linear(in_features=256, out_features=256, bias=True)
          (linear_k): Linear(in_features=256, out_features=256, bias=True)
          (linear_v): Linear(in_features=256, out_features=256, bias=True)
          (linear_out): Linear(in_features=256, out_features=256, bias=True)
          (dropout): Dropout(p=0.1, inplace=False)
          (q_norm): Identity()
          (k_norm): Identity()
        )
        (src_attn): MultiHeadedAttention(
          (linear_q): Linear(in_features=256, out_features=256, bias=True)
          (linear_k): Linear(in_features=256, out_features=256, bias=True)
          (linear_v): Linear(in_features=256, out_features=256, bias=True)
          (linear_out): Linear(in_features=256, out_features=256, bias=True)
          (dropout): Dropout(p=0.1, inplace=False)
          (q_norm): Identity()
          (k_norm): Identity()
        )
        (feed_forward): PositionwiseFeedForward(
          (w_1): Linear(in_features=256, out_features=2048, bias=True)
          (w_2): Linear(in_features=2048, out_features=256, bias=True)
          (dropout): Dropout(p=0.1, inplace=False)
          (activation): ReLU()
        )
        (norm1): LayerNorm((256,), eps=1e-12, elementwise_affine=True)
        (norm2): LayerNorm((256,), eps=1e-12, elementwise_affine=True)
        (norm3): LayerNorm((256,), eps=1e-12, elementwise_affine=True)
        (dropout): Dropout(p=0.1, inplace=False)
      )
    )
  )
  (criterion_mt): LabelSmoothingLoss(
    (criterion): KLDivLoss()
  )
  (specaug): SpecAug(
    (time_mask): MaskAlongAxisVariableMaxWidth(mask_width_ratio_range=[0.0, 0.05], num_mask=10, axis=time)
  )
  (ctc): CTC(
    (ctc_lo): Linear(in_features=256, out_features=5000, bias=True)
    (ctc_loss): CTCLoss()
  )
)

Model summary:
    Class Name: ESPnetDiscreteASRModel
    Total Number of model parameters: 40.36 M
    Number of trainable parameters: 40.36 M (100.0%)
    Size: 161.45 MB
    Type: torch.float32
[SPAPL-Psychic] 2024-10-25 22:41:54,834 (abs_task:1391) INFO: Optimizer:
Adam (
Parameter Group 0
    amsgrad: False
    betas: (0.9, 0.999)
…
00_char_bpe5000/train/text_shape.bpe --ngpu 1 --multiprocessing_distributed True
[dl] 2025-01-10 03:06:22,810 (mt:347) INFO: Vocabulary size: 5000
[dl] 2025-01-10 03:06:22,811 (mt:361) INFO: Source vocabulary size: 2003
[dl] 2025-01-10 03:06:23,004 (discrete_asr_espnet_model:96) WARNING: Set decoder to none as ctc_weight==1.0
[dl] 2025-01-10 03:06:24,016 (abs_task:1387) INFO: pytorch.version=2.3.0+cu121, cuda.available=True, cudnn.version=8902, cudnn.benchmark=False, cudnn.deterministic=True
[dl] 2025-01-10 03:06:24,021 (abs_task:1388) INFO: Model structure:
ESPnetDiscreteASRModel(
  (frontend): Embedding(
    (embed): Sequential(
      (0): Embedding(2003, 512)
      (1): PositionalEncoding(
        (dropout): Dropout(p=0.1, inplace=False)
      )
    )
  )
  (encoder): EBranchformerEncoder(
    (embed): Conv1dSubsampling2(
      (conv): Sequential(
        (0): Conv1d(512, 256, kernel_size=(3,), stride=(1,))
        (1): ReLU()
        (2): Conv1d(256, 256, kernel_size=(3,), stride=(2,))
        (3): ReLU()
      )
      (out): Sequential(
        (0): Linear(in_features=256, out_features=256, bias=True)
        (1): RelPositionalEncoding(
          (dropout): Dropout(p=0.1, inplace=False)
        )
      )
    )
    (encoders): MultiSequential(
      (0): EBranchformerEncoderLayer(
        (attn): RelPositionMultiHeadedAttention(
          (linear_q): Linear(in_features=256, out_features=256, bias=True)
          (linear_k): Linear(in_features=256, out_features=256, bias=True)
          (linear_v): Linear(in_features=256, out_features=256, bias=True)
          (linear_out): Linear(in_features=256, out_features=256, bias=True)
          (dropout): Dropout(p=0.1, inplace=False)
          (q_norm): Identity()
          (k_norm): Identity()
          (linear_pos): Linear(in_features=256, out_features=256, bias=False)
        )
        (cgmlp): ConvolutionalGatingMLP(
          (channel_proj1): Sequential(
            (0): Linear(in_features=256, out_features=1024, bias=True)
            (1): GELU(approximate='none')
          )
          (csgu): ConvolutionalSpatialGatingUnit(
            (norm): LayerNorm((512,), eps=1e-12, elementwise_affine=True)
            (conv): Conv1d(512, 512, kernel_size=(31,), stride=(1,), padding=(15,), groups=512)
            (act): Identity()
            (dropout): Dropout(p=0.1, inplace=False)
          )
          (channel_proj2): Linear(in_features=512, out_features=256, bias=True)
        )
        (feed_forward): PositionwiseFeedForward(
          (w_1): Linear(in_features=256, out_features=1024, bias=True)
          (w_2): Linear(in_features=1024, out_features=256, bias=True)
          (dropout): Dropout(p=0.1, inplace=False)
          (activation): Swish()
        )
        (feed_forward_macaron): PositionwiseFeedForward(
          (w_1): Linear(in_features=256, out_features=1024, bias=True)
          (w_2): Linear(in_features=1024, out_features=256, bias=True)
          (dropout): Dropout(p=0.1, inplace=False)
          (activation): Swish()
        )
        (norm_ff): LayerNorm((256,), eps=1e-12, elementwise_affine=True)
        (norm_ff_macaron): LayerNorm((256,), eps=1e-12, elementwise_affine=True)
        (norm_mha): LayerNorm((256,), eps=1e-12, elementwise_affine=True)
        (norm_mlp): LayerNorm((256,), eps=1e-12, elementwise_affine=True)
        (norm_final): LayerNorm((256,), eps=1e-12, elementwise_affine=True)
        (dropout): Dropout(p=0.1, inplace=False)
        (depthwise_conv_fusion): Conv1d(512, 512, kernel_size=(31,), stride=(1,), padding=(15,), groups=512)
        (merge_proj): Linear(in_features=512, out_features=256, bias=True)
      )
      (1): EBranchformerEncoderLayer(
        (attn): RelPositionMultiHeadedAttention(
          (linear_q): Linear(in_features=256, out_features=256, bias=True)
          (linear_k): Linear(in_features=256, out_features=256, bias=True)
          (linear_v): Linear(in_features=256, out_features=256, bias=True)
          (linear_out): Linear(in_features=256, out_features=256, bias=True)
          (dropout): Dropout(p=0.1, inplace=False)
          (q_norm): Identity()
          (k_norm): Identity()
          (linear_pos): Linear(in_features=256, out_features=256, bias=False)
        )
        (cgmlp): ConvolutionalGatingMLP(
          (channel_proj1): Sequential(
            (0): Linear(in_features=256, out_features=1024, bias=True)
            (1): GELU(approximate='none')
          )
          (csgu): ConvolutionalSpatialGatingUnit(
            (norm): LayerNorm((512,), eps=1e-12, elementwise_affine=True)
            (conv): Conv1d(512, 512, kernel_size=(31,), stride=(1,), padding=(15,), groups=512)
            (act): Identity()
            (dropout): Dropout(p=0.1, inplace=False)
          )
          (channel_proj2): Linear(in_features=512, out_features=256, bias=True)
        )
        (feed_forward): PositionwiseFeedForward(
          (w_1): Linear(in_features=256, out_features=1024, bias=True)
          (w_2): Linear(in_features=1024, out_features=256, bias=True)
          (dropout): Dropout(p=0.1, inplace=False)
          (activation): Swish()
        )
        (feed_forward_macaron): PositionwiseFeedForward(
          (w_1): Linear(in_features=256, out_features=1024, bias=True)
          (w_2): Linear(in_features=1024, out_features=256, bias=True)
          (dropout): Dropout(p=0.1, inplace=False)
          (activation): Swish()
        )
        (norm_ff): LayerNorm((256,), eps=1e-12, elementwise_affine=True)
        (norm_ff_macaron): LayerNorm((256,), eps=1e-12, elementwise_affine=True)
        (norm_mha): LayerNorm((256,), eps=1e-12, elementwise_affine=True)
        (norm_mlp): LayerNorm((256,), eps=1e-12, elementwise_affine=True)
        (norm_final): LayerNorm((256,), eps=1e-12, elementwise_affine=True)
        (dropout): Dropout(p=0.1, inplace=False)
        (depthwise_conv_fusion): Conv1d(512, 512, kernel_size=(31,), stride=(1,), padding=(15,), groups=512)
        (merge_proj): Linear(in_features=512, out_features=256, bias=True)
      )
      (2): EBranchformerEncoderLayer(
        (attn): RelPositionMultiHeadedAttention(
          (linear_q): Linear(in_features=256, out_features=256, bias=True)
          (linear_k): Linear(in_features=256, out_features=256, bias=True)
          (linear_v): Linear(in_features=256, out_features=256, bias=True)
          (linear_out): Linear(in_features=256, out_features=256, bias=True)
          (dropout): Dropout(p=0.1, inplace=False)
          (q_norm): Identity()
          (k_norm): Identity()
          (linear_pos): Linear(in_features=256, out_features=256, bias=False)
        )
        (cgmlp): ConvolutionalGatingMLP(
          (channel_proj1): Sequential(
            (0): Linear(in_features=256, out_features=1024, bias=True)
            (1): GELU(approximate='none')
          )
          (csgu): ConvolutionalSpatialGatingUnit(
            (norm): LayerNorm((512,), eps=1e-12, elementwise_affine=True)
            (conv): Conv1d(512, 512, kernel_size=(31,), stride=(1,), padding=(15,), groups=512)
            (act): Identity()
            (dropout): Dropout(p=0.1, inplace=False)
          )
          (channel_proj2): Linear(in_features=512, out_features=256, bias=True)
        )
        (feed_forward): PositionwiseFeedForward(
          (w_1): Linear(in_features=256, out_features=1024, bias=True)
          (w_2): Linear(in_features=1024, out_features=256, bias=True)
          (dropout): Dropout(p=0.1, inplace=False)
          (activation): Swish()
        )
        (feed_forward_macaron): PositionwiseFeedForward(
          (w_1): Linear(in_features=256, out_features=1024, bias=True)
          (w_2): Linear(in_features=1024, out_features=256, bias=True)
          (dropout): Dropout(p=0.1, inplace=False)
          (activation): Swish()
        )
        (norm_ff): LayerNorm((256,), eps=1e-12, elementwise_affine=True)
        (norm_ff_macaron): LayerNorm((256,), eps=1e-12, elementwise_affine=True)
        (norm_mha): LayerNorm((256,), eps=1e-12, elementwise_affine=True)
        (norm_mlp): LayerNorm((256,), eps=1e-12, elementwise_affine=True)
        (norm_final): LayerNorm((256,), eps=1e-12, elementwise_affine=True)
        (dropout): Dropout(p=0.1, inplace=False)
        (depthwise_conv_fusion): Conv1d(512, 512, kernel_size=(31,), stride=(1,), padding=(15,), groups=512)
        (merge_proj): Linear(in_features=512, out_features=256, bias=True)
      )
      (3): EBranchformerEncoderLayer(
        (attn): RelPositionMultiHeadedAttention(
          (linear_q): Linear(in_features=256, out_features=256, bias=True)
          (linear_k): Linear(in_features=256, out_features=256, bias=True)
          (linear_v): Linear(in_features=256, out_features=256, bias=True)
          (linear_out): Linear(in_features=256, out_features=256, bias=True)
          (dropout): Dropout(p=0.1, inplace=False)
          (q_norm): Identity()
          (k_norm): Identity()
          (linear_pos): Linear(in_features=256, out_features=256, bias=False)
        )
        (cgmlp): ConvolutionalGatingMLP(
          (channel_proj1): Sequential(
            (0): Linear(in_features=256, out_features=1024, bias=True)
            (1): GELU(approximate='none')
          )
          (csgu): ConvolutionalSpatialGatingUnit(
            (norm): LayerNorm((512,), eps=1e-12, elementwise_affine=True)
            (conv): Conv1d(512, 512, kernel_size=(31,), stride=(1,), padding=(15,), groups=512)
            (act): Identity()
            (dropout): Dropout(p=0.1, inplace=False)
          )
          (channel_proj2): Linear(in_features=512, out_features=256, bias=True)
        )
        (feed_forward): PositionwiseFeedForward(
          (w_1): Linear(in_features=256, out_features=1024, bias=True)
          (w_2): Linear(in_features=1024, out_features=256, bias=True)
          (dropout): Dropout(p=0.1, inplace=False)
          (activation): Swish()
        )
        (feed_forward_macaron): PositionwiseFeedForward(
          (w_1): Linear(in_features=256, out_features=1024, bias=True)
          (w_2): Linear(in_features=1024, out_features=256, bias=True)
          (dropout): Dropout(p=0.1, inplace=False)
          (activation): Swish()
        )
        (norm_ff): LayerNorm((256,), eps=1e-12, elementwise_affine=True)
        (norm_ff_macaron): LayerNorm((256,), eps=1e-12, elementwise_affine=True)
        (norm_mha): LayerNorm((256,), eps=1e-12, elementwise_affine=True)
        (norm_mlp): LayerNorm((256,), eps=1e-12, elementwise_affine=True)
        (norm_final): LayerNorm((256,), eps=1e-12, elementwise_affine=True)
        (dropout): Dropout(p=0.1, inplace=False)
        (depthwise_conv_fusion): Conv1d(512, 512, kernel_size=(31,), stride=(1,), padding=(15,), groups=512)
        (merge_proj): Linear(in_features=512, out_features=256, bias=True)
      )
      (4): EBranchformerEncoderLayer(
        (attn): RelPositionMultiHeadedAttention(
          (linear_q): Linear(in_features=256, out_features=256, bias=True)
          (linear_k): Linear(in_features=256, out_features=256, bias=True)
          (linear_v): Linear(in_features=256, out_features=256, bias=True)
          (linear_out): Linear(in_features=256, out_features=256, bias=True)
          (dropout): Dropout(p=0.1, inplace=False)
          (q_norm): Identity()
          (k_norm): Identity()
          (linear_pos): Linear(in_features=256, out_features=256, bias=False)
        )
        (cgmlp): ConvolutionalGatingMLP(
          (channel_proj1): Sequential(
            (0): Linear(in_features=256, out_features=1024, bias=True)
            (1): GELU(approximate='none')
          )
          (csgu): ConvolutionalSpatialGatingUnit(
            (norm): LayerNorm((512,), eps=1e-12, elementwise_affine=True)
            (conv): Conv1d(512, 512, kernel_size=(31,), stride=(1,), padding=(15,), groups=512)
            (act): Identity()
            (dropout): Dropout(p=0.1, inplace=False)
          )
          (channel_proj2): Linear(in_features=512, out_features=256, bias=True)
        )
        (feed_forward): PositionwiseFeedForward(
          (w_1): Linear(in_features=256, out_features=1024, bias=True)
          (w_2): Linear(in_features=1024, out_features=256, bias=True)
          (dropout): Dropout(p=0.1, inplace=False)
          (activation): Swish()
        )
        (feed_forward_macaron): PositionwiseFeedForward(
          (w_1): Linear(in_features=256, out_features=1024, bias=True)
          (w_2): Linear(in_features=1024, out_features=256, bias=True)
          (dropout): Dropout(p=0.1, inplace=False)
          (activation): Swish()
        )
        (norm_ff): LayerNorm((256,), eps=1e-12, elementwise_affine=True)
        (norm_ff_macaron): LayerNorm((256,), eps=1e-12, elementwise_affine=True)
        (norm_mha): LayerNorm((256,), eps=1e-12, elementwise_affine=True)
        (norm_mlp): LayerNorm((256,), eps=1e-12, elementwise_affine=True)
        (norm_final): LayerNorm((256,), eps=1e-12, elementwise_affine=True)
        (dropout): Dropout(p=0.1, inplace=False)
        (depthwise_conv_fusion): Conv1d(512, 512, kernel_size=(31,), stride=(1,), padding=(15,), groups=512)
        (merge_proj): Linear(in_features=512, out_features=256, bias=True)
      )
      (5): EBranchformerEncoderLayer(
        (attn): RelPositionMultiHeadedAttention(
          (linear_q): Linear(in_features=256, out_features=256, bias=True)
          (linear_k): Linear(in_features=256, out_features=256, bias=True)
          (linear_v): Linear(in_features=256, out_features=256, bias=True)
          (linear_out): Linear(in_features=256, out_features=256, bias=True)
          (dropout): Dropout(p=0.1, inplace=False)
          (q_norm): Identity()
          (k_norm): Identity()
          (linear_pos): Linear(in_features=256, out_features=256, bias=False)
        )
        (cgmlp): ConvolutionalGatingMLP(
          (channel_proj1): Sequential(
            (0): Linear(in_features=256, out_features=1024, bias=True)
            (1): GELU(approximate='none')
          )
          (csgu): ConvolutionalSpatialGatingUnit(
            (norm): LayerNorm((512,), eps=1e-12, elementwise_affine=True)
            (conv): Conv1d(512, 512, kernel_size=(31,), stride=(1,), padding=(15,), groups=512)
            (act): Identity()
            (dropout): Dropout(p=0.1, inplace=False)
          )
          (channel_proj2): Linear(in_features=512, out_features=256, bias=True)
        )
        (feed_forward): PositionwiseFeedForward(
          (w_1): Linear(in_features=256, out_features=1024, bias=True)
          (w_2): Linear(in_features=1024, out_features=256, bias=True)
          (dropout): Dropout(p=0.1, inplace=False)
          (activation): Swish()
        )
        (feed_forward_macaron): PositionwiseFeedForward(
          (w_1): Linear(in_features=256, out_features=1024, bias=True)
          (w_2): Linear(in_features=1024, out_features=256, bias=True)
          (dropout): Dropout(p=0.1, inplace=False)
          (activation): Swish()
        )
        (norm_ff): LayerNorm((256,), eps=1e-12, elementwise_affine=True)
        (norm_ff_macaron): LayerNorm((256,), eps=1e-12, elementwise_affine=True)
        (norm_mha): LayerNorm((256,), eps=1e-12, elementwise_affine=True)
        (norm_mlp): LayerNorm((256,), eps=1e-12, elementwise_affine=True)
        (norm_final): LayerNorm((256,), eps=1e-12, elementwise_affine=True)
        (dropout): Dropout(p=0.1, inplace=False)
        (depthwise_conv_fusion): Conv1d(512, 512, kernel_size=(31,), stride=(1,), padding=(15,), groups=512)
        (merge_proj): Linear(in_features=512, out_features=256, bias=True)
      )
      (6): EBranchformerEncoderLayer(
        (attn): RelPositionMultiHeadedAttention(
          (linear_q): Linear(in_features=256, out_features=256, bias=True)
          (linear_k): Linear(in_features=256, out_features=256, bias=True)
          (linear_v): Linear(in_features=256, out_features=256, bias=True)
          (linear_out): Linear(in_features=256, out_features=256, bias=True)
          (dropout): Dropout(p=0.1, inplace=False)
          (q_norm): Identity()
          (k_norm): Identity()
          (linear_pos): Linear(in_features=256, out_features=256, bias=False)
        )
        (cgmlp): ConvolutionalGatingMLP(
          (channel_proj1): Sequential(
            (0): Linear(in_features=256, out_features=1024, bias=True)
            (1): GELU(approximate='none')
          )
          (csgu): ConvolutionalSpatialGatingUnit(
            (norm): LayerNorm((512,), eps=1e-12, elementwise_affine=True)
            (conv): Conv1d(512, 512, kernel_size=(31,), stride=(1,), padding=(15,), groups=512)
            (act): Identity()
            (dropout): Dropout(p=0.1, inplace=False)
          )
          (channel_proj2): Linear(in_features=512, out_features=256, bias=True)
        )
        (feed_forward): PositionwiseFeedForward(
          (w_1): Linear(in_features=256, out_features=1024, bias=True)
          (w_2): Linear(in_features=1024, out_features=256, bias=True)
          (dropout): Dropout(p=0.1, inplace=False)
          (activation): Swish()
        )
        (feed_forward_macaron): PositionwiseFeedForward(
          (w_1): Linear(in_features=256, out_features=1024, bias=True)
          (w_2): Linear(in_features=1024, out_features=256, bias=True)
          (dropout): Dropout(p=0.1, inplace=False)
          (activation): Swish()
        )
        (norm_ff): LayerNorm((256,), eps=1e-12, elementwise_affine=True)
        (norm_ff_macaron): LayerNorm((256,), eps=1e-12, elementwise_affine=True)
        (norm_mha): LayerNorm((256,), eps=1e-12, elementwise_affine=True)
        (norm_mlp): LayerNorm((256,), eps=1e-12, elementwise_affine=True)
        (norm_final): LayerNorm((256,), eps=1e-12, elementwise_affine=True)
        (dropout): Dropout(p=0.1, inplace=False)
        (depthwise_conv_fusion): Conv1d(512, 512, kernel_size=(31,), stride=(1,), padding=(15,), groups=512)
        (merge_proj): Linear(in_features=512, out_features=256, bias=True)
      )
      (7): EBranchformerEncoderLayer(
        (attn): RelPositionMultiHeadedAttention(
          (linear_q): Linear(in_features=256, out_features=256, bias=True)
          (linear_k): Linear(in_features=256, out_features=256, bias=True)
          (linear_v): Linear(in_features=256, out_features=256, bias=True)
          (linear_out): Linear(in_features=256, out_features=256, bias=True)
          (dropout): Dropout(p=0.1, inplace=False)
          (q_norm): Identity()
          (k_norm): Identity()
          (linear_pos): Linear(in_features=256, out_features=256, bias=False)
        )
        (cgmlp): ConvolutionalGatingMLP(
          (channel_proj1): Sequential(
            (0): Linear(in_features=256, out_features=1024, bias=True)
            (1): GELU(approximate='none')
          )
          (csgu): ConvolutionalSpatialGatingUnit(
            (norm): LayerNorm((512,), eps=1e-12, elementwise_affine=True)
            (conv): Conv1d(512, 512, kernel_size=(31,), stride=(1,), padding=(15,), groups=512)
            (act): Identity()
            (dropout): Dropout(p=0.1, inplace=False)
          )
          (channel_proj2): Linear(in_features=512, out_features=256, bias=True)
        )
        (feed_forward): PositionwiseFeedForward(
          (w_1): Linear(in_features=256, out_features=1024, bias=True)
          (w_2): Linear(in_features=1024, out_features=256, bias=True)
          (dropout): Dropout(p=0.1, inplace=False)
          (activation): Swish()
        )
        (feed_forward_macaron): PositionwiseFeedForward(
          (w_1): Linear(in_features=256, out_features=1024, bias=True)
          (w_2): Linear(in_features=1024, out_features=256, bias=True)
          (dropout): Dropout(p=0.1, inplace=False)
          (activation): Swish()
        )
        (norm_ff): LayerNorm((256,), eps=1e-12, elementwise_affine=True)
        (norm_ff_macaron): LayerNorm((256,), eps=1e-12, elementwise_affine=True)
        (norm_mha): LayerNorm((256,), eps=1e-12, elementwise_affine=True)
        (norm_mlp): LayerNorm((256,), eps=1e-12, elementwise_affine=True)
        (norm_final): LayerNorm((256,), eps=1e-12, elementwise_affine=True)
        (dropout): Dropout(p=0.1, inplace=False)
        (depthwise_conv_fusion): Conv1d(512, 512, kernel_size=(31,), stride=(1,), padding=(15,), groups=512)
        (merge_proj): Linear(in_features=512, out_features=256, bias=True)
      )
      (8): EBranchformerEncoderLayer(
        (attn): RelPositionMultiHeadedAttention(
          (linear_q): Linear(in_features=256, out_features=256, bias=True)
          (linear_k): Linear(in_features=256, out_features=256, bias=True)
          (linear_v): Linear(in_features=256, out_features=256, bias=True)
          (linear_out): Linear(in_features=256, out_features=256, bias=True)
          (dropout): Dropout(p=0.1, inplace=False)
          (q_norm): Identity()
          (k_norm): Identity()
          (linear_pos): Linear(in_features=256, out_features=256, bias=False)
        )
        (cgmlp): ConvolutionalGatingMLP(
          (channel_proj1): Sequential(
            (0): Linear(in_features=256, out_features=1024, bias=True)
            (1): GELU(approximate='none')
          )
          (csgu): ConvolutionalSpatialGatingUnit(
            (norm): LayerNorm((512,), eps=1e-12, elementwise_affine=True)
            (conv): Conv1d(512, 512, kernel_size=(31,), stride=(1,), padding=(15,), groups=512)
            (act): Identity()
            (dropout): Dropout(p=0.1, inplace=False)
          )
          (channel_proj2): Linear(in_features=512, out_features=256, bias=True)
        )
        (feed_forward): PositionwiseFeedForward(
          (w_1): Linear(in_features=256, out_features=1024, bias=True)
          (w_2): Linear(in_features=1024, out_features=256, bias=True)
          (dropout): Dropout(p=0.1, inplace=False)
          (activation): Swish()
        )
        (feed_forward_macaron): PositionwiseFeedForward(
          (w_1): Linear(in_features=256, out_features=1024, bias=True)
          (w_2): Linear(in_features=1024, out_features=256, bias=True)
          (dropout): Dropout(p=0.1, inplace=False)
          (activation): Swish()
        )
        (norm_ff): LayerNorm((256,), eps=1e-12, elementwise_affine=True)
        (norm_ff_macaron): LayerNorm((256,), eps=1e-12, elementwise_affine=True)
        (norm_mha): LayerNorm((256,), eps=1e-12, elementwise_affine=True)
        (norm_mlp): LayerNorm((256,), eps=1e-12, elementwise_affine=True)
        (norm_final): LayerNorm((256,), eps=1e-12, elementwise_affine=True)
        (dropout): Dropout(p=0.1, inplace=False)
        (depthwise_conv_fusion): Conv1d(512, 512, kernel_size=(31,), stride=(1,), padding=(15,), groups=512)
        (merge_proj): Linear(in_features=512, out_features=256, bias=True)
      )
      (9): EBranchformerEncoderLayer(
        (attn): RelPositionMultiHeadedAttention(
          (linear_q): Linear(in_features=256, out_features=256, bias=True)
          (linear_k): Linear(in_features=256, out_features=256, bias=True)
          (linear_v): Linear(in_features=256, out_features=256, bias=True)
          (linear_out): Linear(in_features=256, out_features=256, bias=True)
          (dropout): Dropout(p=0.1, inplace=False)
          (q_norm): Identity()
          (k_norm): Identity()
          (linear_pos): Linear(in_features=256, out_features=256, bias=False)
        )
        (cgmlp): ConvolutionalGatingMLP(
          (channel_proj1): Sequential(
            (0): Linear(in_features=256, out_features=1024, bias=True)
            (1): GELU(approximate='none')
          )
          (csgu): ConvolutionalSpatialGatingUnit(
            (norm): LayerNorm((512,), eps=1e-12, elementwise_affine=True)
            (conv): Conv1d(512, 512, kernel_size=(31,), stride=(1,), padding=(15,), groups=512)
            (act): Identity()
            (dropout): Dropout(p=0.1, inplace=False)
          )
          (channel_proj2): Linear(in_features=512, out_features=256, bias=True)
        )
        (feed_forward): PositionwiseFeedForward(
          (w_1): Linear(in_features=256, out_features=1024, bias=True)
          (w_2): Linear(in_features=1024, out_features=256, bias=True)
          (dropout): Dropout(p=0.1, inplace=False)
          (activation): Swish()
        )
        (feed_forward_macaron): PositionwiseFeedForward(
          (w_1): Linear(in_features=256, out_features=1024, bias=True)
          (w_2): Linear(in_features=1024, out_features=256, bias=True)
          (dropout): Dropout(p=0.1, inplace=False)
          (activation): Swish()
        )
        (norm_ff): LayerNorm((256,), eps=1e-12, elementwise_affine=True)
        (norm_ff_macaron): LayerNorm((256,), eps=1e-12, elementwise_affine=True)
        (norm_mha): LayerNorm((256,), eps=1e-12, elementwise_affine=True)
        (norm_mlp): LayerNorm((256,), eps=1e-12, elementwise_affine=True)
        (norm_final): LayerNorm((256,), eps=1e-12, elementwise_affine=True)
        (dropout): Dropout(p=0.1, inplace=False)
        (depthwise_conv_fusion): Conv1d(512, 512, kernel_size=(31,), stride=(1,), padding=(15,), groups=512)
        (merge_proj): Linear(in_features=512, out_features=256, bias=True)
      )
      (10): EBranchformerEncoderLayer(
        (attn): RelPositionMultiHeadedAttention(
          (linear_q): Linear(in_features=256, out_features=256, bias=True)
          (linear_k): Linear(in_features=256, out_features=256, bias=True)
          (linear_v): Linear(in_features=256, out_features=256, bias=True)
          (linear_out): Linear(in_features=256, out_features=256, bias=True)
          (dropout): Dropout(p=0.1, inplace=False)
          (q_norm): Identity()
          (k_norm): Identity()
          (linear_pos): Linear(in_features=256, out_features=256, bias=False)
        )
        (cgmlp): ConvolutionalGatingMLP(
          (channel_proj1): Sequential(
            (0): Linear(in_features=256, out_features=1024, bias=True)
            (1): GELU(approximate='none')
          )
          (csgu): ConvolutionalSpatialGatingUnit(
            (norm): LayerNorm((512,), eps=1e-12, elementwise_affine=True)
            (conv): Conv1d(512, 512, kernel_size=(31,), stride=(1,), padding=(15,), groups=512)
            (act): Identity()
            (dropout): Dropout(p=0.1, inplace=False)
          )
          (channel_proj2): Linear(in_features=512, out_features=256, bias=True)
        )
        (feed_forward): PositionwiseFeedForward(
          (w_1): Linear(in_features=256, out_features=1024, bias=True)
          (w_2): Linear(in_features=1024, out_features=256, bias=True)
          (dropout): Dropout(p=0.1, inplace=False)
          (activation): Swish()
        )
        (feed_forward_macaron): PositionwiseFeedForward(
          (w_1): Linear(in_features=256, out_features=1024, bias=True)
          (w_2): Linear(in_features=1024, out_features=256, bias=True)
          (dropout): Dropout(p=0.1, inplace=False)
          (activation): Swish()
        )
        (norm_ff): LayerNorm((256,), eps=1e-12, elementwise_affine=True)
        (norm_ff_macaron): LayerNorm((256,), eps=1e-12, elementwise_affine=True)
        (norm_mha): LayerNorm((256,), eps=1e-12, elementwise_affine=True)
        (norm_mlp): LayerNorm((256,), eps=1e-12, elementwise_affine=True)
        (norm_final): LayerNorm((256,), eps=1e-12, elementwise_affine=True)
        (dropout): Dropout(p=0.1, inplace=False)
        (depthwise_conv_fusion): Conv1d(512, 512, kernel_size=(31,), stride=(1,), padding=(15,), groups=512)
        (merge_proj): Linear(in_features=512, out_features=256, bias=True)
      )
      (11): EBranchformerEncoderLayer(
        (attn): RelPositionMultiHeadedAttention(
          (linear_q): Linear(in_features=256, out_features=256, bias=True)
          (linear_k): Linear(in_features=256, out_features=256, bias=True)
          (linear_v): Linear(in_features=256, out_features=256, bias=True)
          (linear_out): Linear(in_features=256, out_features=256, bias=True)
          (dropout): Dropout(p=0.1, inplace=False)
          (q_norm): Identity()
          (k_norm): Identity()
          (linear_pos): Linear(in_features=256, out_features=256, bias=False)
        )
        (cgmlp): ConvolutionalGatingMLP(
          (channel_proj1): Sequential(
            (0): Linear(in_features=256, out_features=1024, bias=True)
            (1): GELU(approximate='none')
          )
          (csgu): ConvolutionalSpatialGatingUnit(
            (norm): LayerNorm((512,), eps=1e-12, elementwise_affine=True)
            (conv): Conv1d(512, 512, kernel_size=(31,), stride=(1,), padding=(15,), groups=512)
            (act): Identity()
            (dropout): Dropout(p=0.1, inplace=False)
          )
          (channel_proj2): Linear(in_features=512, out_features=256, bias=True)
        )
        (feed_forward): PositionwiseFeedForward(
          (w_1): Linear(in_features=256, out_features=1024, bias=True)
          (w_2): Linear(in_features=1024, out_features=256, bias=True)
          (dropout): Dropout(p=0.1, inplace=False)
          (activation): Swish()
        )
        (feed_forward_macaron): PositionwiseFeedForward(
          (w_1): Linear(in_features=256, out_features=1024, bias=True)
          (w_2): Linear(in_features=1024, out_features=256, bias=True)
          (dropout): Dropout(p=0.1, inplace=False)
          (activation): Swish()
        )
        (norm_ff): LayerNorm((256,), eps=1e-12, elementwise_affine=True)
        (norm_ff_macaron): LayerNorm((256,), eps=1e-12, elementwise_affine=True)
        (norm_mha): LayerNorm((256,), eps=1e-12, elementwise_affine=True)
        (norm_mlp): LayerNorm((256,), eps=1e-12, elementwise_affine=True)
        (norm_final): LayerNorm((256,), eps=1e-12, elementwise_affine=True)
        (dropout): Dropout(p=0.1, inplace=False)
        (depthwise_conv_fusion): Conv1d(512, 512, kernel_size=(31,), stride=(1,), padding=(15,), groups=512)
        (merge_proj): Linear(in_features=512, out_features=256, bias=True)
      )
    )
    (after_norm): LayerNorm((256,), eps=1e-12, elementwise_affine=True)
  )
  (criterion_mt): LabelSmoothingLoss(
    (criterion): KLDivLoss()
  )
  (specaug): SpecAug(
    (time_mask): MaskAlongAxisVariableMaxWidth(mask_width_ratio_range=[0.0, 0.05], num_mask=10, axis=time)
  )
  (ctc): CTC(
    (ctc_lo): Linear(in_features=256, out_features=5000, bias=True)
    (ctc_loss): CTCLoss()
  )
)

Model summary:
    Class Name: ESPnetDiscreteASRModel
    Total Number of model parameters: 26.28 M
    Number of trainable parameters: 26.28 M (100.0%)
    Size: 105.11 MB
    Type: torch.float32
[dl] 2025-01-10 03:06:24,022 (abs_task:1391) INFO: Optimizer:
Adam (
Parameter Group 0
    amsgrad: False
    betas: (0.9, 0.999)
…
  File "/data/mohan/anaconda3/envs/espnet/lib/python3.10/runpy.py", line 196, in _run_module_as_main
    return _run_code(code, main_globals, None,
  File "/data/mohan/anaconda3/envs/espnet/lib/python3.10/runpy.py", line 86, in _run_code
    exec(code, run_globals)
  File "/data/mohan/workdir/espnet/espnet2/bin/launch.py", line 384, in <module>
    main()
  File "/data/mohan/workdir/espnet/espnet2/bin/launch.py", line 375, in main
    raise RuntimeError(
RuntimeError: 
################### The last 1000 lines of exp/asr_train_discrete_asr_int_e_branchformer1_onlyctc_1gpu_lr5e-4_raw_speechtokenizer_char_ts_bpe_ts5000/train.log ###################
          (channel_proj2): Linear(in_features=512, out_features=256, bias=True)
        )
        (feed_forward): PositionwiseFeedForward(
          (w_1): Linear(in_features=256, out_features=1024, bias=True)
          (w_2): Linear(in_features=1024, out_features=256, bias=True)
          (dropout): Dropout(p=0.1, inplace=False)
          (activation): Swish()
        )
        (feed_forward_macaron): PositionwiseFeedForward(
          (w_1): Linear(in_features=256, out_features=1024, bias=True)
          (w_2): Linear(in_features=1024, out_features=256, bias=True)
          (dropout): Dropout(p=0.1, inplace=False)
          (activation): Swish()
        )
        (norm_ff): LayerNorm((256,), eps=1e-12, elementwise_affine=True)
        (norm_ff_macaron): LayerNorm((256,), eps=1e-12, elementwise_affine=True)
        (norm_mha): LayerNorm((256,), eps=1e-12, elementwise_affine=True)
        (norm_mlp): LayerNorm((256,), eps=1e-12, elementwise_affine=True)
        (norm_final): LayerNorm((256,), eps=1e-12, elementwise_affine=True)
        (dropout): Dropout(p=0.1, inplace=False)
        (depthwise_conv_fusion): Conv1d(512, 512, kernel_size=(31,), stride=(1,), padding=(15,), groups=512)
        (merge_proj): Linear(in_features=512, out_features=256, bias=True)
      )
    )
    (after_norm): LayerNorm((256,), eps=1e-12, elementwise_affine=True)
  )
  (criterion_mt): LabelSmoothingLoss(
    (criterion): KLDivLoss()
  )
  (specaug): SpecAug(
    (time_mask): MaskAlongAxisVariableMaxWidth(mask_width_ratio_range=[0.0, 0.05], num_mask=10, axis=time)
  )
  (ctc): CTC(
    (ctc_lo): Linear(in_features=256, out_features=5000, bias=True)
    (ctc_loss): CTCLoss()
  )
)

Model summary:
    Class Name: ESPnetDiscreteASRModel
    Total Number of model parameters: 25.78 M
    Number of trainable parameters: 25.78 M (100.0%)
    Size: 103.11 MB
    Type: torch.float32
[lambda-Lambda-Vector] 2025-04-01 17:31:08,160 (abs_task:1391) INFO: Optimizer:
Adam (
Parameter Group 0
    amsgrad: False
…
[lambda-Lambda-Vector] 2025-04-08 00:17:53,591 (mt_codec:333) INFO: Vocabulary size: 5000
[lambda-Lambda-Vector] 2025-04-08 00:17:53,762 (discrete_asr_codec_espnet_model:98) WARNING: Set decoder to none as ctc_weight==1.0
[lambda-Lambda-Vector] 2025-04-08 00:17:54,941 (abs_task:1387) INFO: pytorch.version=2.3.0+cu121, cuda.available=True, cudnn.version=8902, cudnn.benchmark=False, cudnn.deterministic=True
[lambda-Lambda-Vector] 2025-04-08 00:17:54,945 (abs_task:1388) INFO: Model structure:
ESPnetDiscreteASRModel(
  (frontend): CodebookEmbedding(
    (codebooks): ModuleList(
      (0-7): 8 x Sequential(
        (0): Embedding(1000, 128)
        (1): PositionalEncoding(
          (dropout): Dropout(p=0.1, inplace=False)
        )
      )
    )
  )
  (encoder): EBranchformerEncoder(
    (embed): Conv1dSubsampling2(
      (conv): Sequential(
        (0): Conv1d(128, 256, kernel_size=(3,), stride=(1,))
        (1): ReLU()
        (2): Conv1d(256, 256, kernel_size=(3,), stride=(2,))
        (3): ReLU()
      )
      (out): Sequential(
        (0): Linear(in_features=256, out_features=256, bias=True)
        (1): RelPositionalEncoding(
          (dropout): Dropout(p=0.1, inplace=False)
        )
      )
    )
    (encoders): MultiSequential(
      (0): EBranchformerEncoderLayer(
        (attn): RelPositionMultiHeadedAttention(
          (linear_q): Linear(in_features=256, out_features=256, bias=True)
          (linear_k): Linear(in_features=256, out_features=256, bias=True)
          (linear_v): Linear(in_features=256, out_features=256, bias=True)
          (linear_out): Linear(in_features=256, out_features=256, bias=True)
          (dropout): Dropout(p=0.1, inplace=False)
          (q_norm): Identity()
          (k_norm): Identity()
          (linear_pos): Linear(in_features=256, out_features=256, bias=False)
        )
        (cgmlp): ConvolutionalGatingMLP(
          (channel_proj1): Sequential(
            (0): Linear(in_features=256, out_features=1024, bias=True)
            (1): GELU(approximate='none')
          )
          (csgu): ConvolutionalSpatialGatingUnit(
            (norm): LayerNorm((512,), eps=1e-12, elementwise_affine=True)
            (conv): Conv1d(512, 512, kernel_size=(31,), stride=(1,), padding=(15,), groups=512)
            (act): Identity()
            (dropout): Dropout(p=0.1, inplace=False)
          )
          (channel_proj2): Linear(in_features=512, out_features=256, bias=True)
        )
        (feed_forward): PositionwiseFeedForward(
          (w_1): Linear(in_features=256, out_features=1024, bias=True)
          (w_2): Linear(in_features=1024, out_features=256, bias=True)
          (dropout): Dropout(p=0.1, inplace=False)
          (activation): Swish()
        )
        (feed_forward_macaron): PositionwiseFeedForward(
          (w_1): Linear(in_features=256, out_features=1024, bias=True)
          (w_2): Linear(in_features=1024, out_features=256, bias=True)
          (dropout): Dropout(p=0.1, inplace=False)
          (activation): Swish()
        )
        (norm_ff): LayerNorm((256,), eps=1e-12, elementwise_affine=True)
        (norm_ff_macaron): LayerNorm((256,), eps=1e-12, elementwise_affine=True)
        (norm_mha): LayerNorm((256,), eps=1e-12, elementwise_affine=True)
        (norm_mlp): LayerNorm((256,), eps=1e-12, elementwise_affine=True)
        (norm_final): LayerNorm((256,), eps=1e-12, elementwise_affine=True)
        (dropout): Dropout(p=0.1, inplace=False)
        (depthwise_conv_fusion): Conv1d(512, 512, kernel_size=(31,), stride=(1,), padding=(15,), groups=512)
        (merge_proj): Linear(in_features=512, out_features=256, bias=True)
      )
      (1): EBranchformerEncoderLayer(
        (attn): RelPositionMultiHeadedAttention(
          (linear_q): Linear(in_features=256, out_features=256, bias=True)
          (linear_k): Linear(in_features=256, out_features=256, bias=True)
          (linear_v): Linear(in_features=256, out_features=256, bias=True)
          (linear_out): Linear(in_features=256, out_features=256, bias=True)
          (dropout): Dropout(p=0.1, inplace=False)
          (q_norm): Identity()
          (k_norm): Identity()
          (linear_pos): Linear(in_features=256, out_features=256, bias=False)
        )
        (cgmlp): ConvolutionalGatingMLP(
          (channel_proj1): Sequential(
            (0): Linear(in_features=256, out_features=1024, bias=True)
            (1): GELU(approximate='none')
          )
          (csgu): ConvolutionalSpatialGatingUnit(
            (norm): LayerNorm((512,), eps=1e-12, elementwise_affine=True)
            (conv): Conv1d(512, 512, kernel_size=(31,), stride=(1,), padding=(15,), groups=512)
            (act): Identity()
            (dropout): Dropout(p=0.1, inplace=False)
          )
          (channel_proj2): Linear(in_features=512, out_features=256, bias=True)
        )
        (feed_forward): PositionwiseFeedForward(
          (w_1): Linear(in_features=256, out_features=1024, bias=True)
          (w_2): Linear(in_features=1024, out_features=256, bias=True)
          (dropout): Dropout(p=0.1, inplace=False)
          (activation): Swish()
        )
        (feed_forward_macaron): PositionwiseFeedForward(
          (w_1): Linear(in_features=256, out_features=1024, bias=True)
          (w_2): Linear(in_features=1024, out_features=256, bias=True)
          (dropout): Dropout(p=0.1, inplace=False)
          (activation): Swish()
        )
        (norm_ff): LayerNorm((256,), eps=1e-12, elementwise_affine=True)
        (norm_ff_macaron): LayerNorm((256,), eps=1e-12, elementwise_affine=True)
        (norm_mha): LayerNorm((256,), eps=1e-12, elementwise_affine=True)
        (norm_mlp): LayerNorm((256,), eps=1e-12, elementwise_affine=True)
        (norm_final): LayerNorm((256,), eps=1e-12, elementwise_affine=True)
        (dropout): Dropout(p=0.1, inplace=False)
        (depthwise_conv_fusion): Conv1d(512, 512, kernel_size=(31,), stride=(1,), padding=(15,), groups=512)
        (merge_proj): Linear(in_features=512, out_features=256, bias=True)
      )
      (2): EBranchformerEncoderLayer(
        (attn): RelPositionMultiHeadedAttention(
          (linear_q): Linear(in_features=256, out_features=256, bias=True)
          (linear_k): Linear(in_features=256, out_features=256, bias=True)
          (linear_v): Linear(in_features=256, out_features=256, bias=True)
          (linear_out): Linear(in_features=256, out_features=256, bias=True)
          (dropout): Dropout(p=0.1, inplace=False)
          (q_norm): Identity()
          (k_norm): Identity()
          (linear_pos): Linear(in_features=256, out_features=256, bias=False)
        )
        (cgmlp): ConvolutionalGatingMLP(
          (channel_proj1): Sequential(
            (0): Linear(in_features=256, out_features=1024, bias=True)
            (1): GELU(approximate='none')
          )
          (csgu): ConvolutionalSpatialGatingUnit(
            (norm): LayerNorm((512,), eps=1e-12, elementwise_affine=True)
            (conv): Conv1d(512, 512, kernel_size=(31,), stride=(1,), padding=(15,), groups=512)
            (act): Identity()
            (dropout): Dropout(p=0.1, inplace=False)
          )
          (channel_proj2): Linear(in_features=512, out_features=256, bias=True)
        )
        (feed_forward): PositionwiseFeedForward(
          (w_1): Linear(in_features=256, out_features=1024, bias=True)
          (w_2): Linear(in_features=1024, out_features=256, bias=True)
          (dropout): Dropout(p=0.1, inplace=False)
          (activation): Swish()
        )
        (feed_forward_macaron): PositionwiseFeedForward(
          (w_1): Linear(in_features=256, out_features=1024, bias=True)
          (w_2): Linear(in_features=1024, out_features=256, bias=True)
          (dropout): Dropout(p=0.1, inplace=False)
          (activation): Swish()
        )
        (norm_ff): LayerNorm((256,), eps=1e-12, elementwise_affine=True)
        (norm_ff_macaron): LayerNorm((256,), eps=1e-12, elementwise_affine=True)
        (norm_mha): LayerNorm((256,), eps=1e-12, elementwise_affine=True)
        (norm_mlp): LayerNorm((256,), eps=1e-12, elementwise_affine=True)
        (norm_final): LayerNorm((256,), eps=1e-12, elementwise_affine=True)
        (dropout): Dropout(p=0.1, inplace=False)
        (depthwise_conv_fusion): Conv1d(512, 512, kernel_size=(31,), stride=(1,), padding=(15,), groups=512)
        (merge_proj): Linear(in_features=512, out_features=256, bias=True)
      )
      (3): EBranchformerEncoderLayer(
        (attn): RelPositionMultiHeadedAttention(
          (linear_q): Linear(in_features=256, out_features=256, bias=True)
          (linear_k): Linear(in_features=256, out_features=256, bias=True)
          (linear_v): Linear(in_features=256, out_features=256, bias=True)
          (linear_out): Linear(in_features=256, out_features=256, bias=True)
          (dropout): Dropout(p=0.1, inplace=False)
          (q_norm): Identity()
          (k_norm): Identity()
          (linear_pos): Linear(in_features=256, out_features=256, bias=False)
        )
        (cgmlp): ConvolutionalGatingMLP(
          (channel_proj1): Sequential(
            (0): Linear(in_features=256, out_features=1024, bias=True)
            (1): GELU(approximate='none')
          )
          (csgu): ConvolutionalSpatialGatingUnit(
            (norm): LayerNorm((512,), eps=1e-12, elementwise_affine=True)
            (conv): Conv1d(512, 512, kernel_size=(31,), stride=(1,), padding=(15,), groups=512)
            (act): Identity()
            (dropout): Dropout(p=0.1, inplace=False)
          )
          (channel_proj2): Linear(in_features=512, out_features=256, bias=True)
        )
        (feed_forward): PositionwiseFeedForward(
          (w_1): Linear(in_features=256, out_features=1024, bias=True)
          (w_2): Linear(in_features=1024, out_features=256, bias=True)
          (dropout): Dropout(p=0.1, inplace=False)
          (activation): Swish()
        )
        (feed_forward_macaron): PositionwiseFeedForward(
          (w_1): Linear(in_features=256, out_features=1024, bias=True)
          (w_2): Linear(in_features=1024, out_features=256, bias=True)
          (dropout): Dropout(p=0.1, inplace=False)
          (activation): Swish()
        )
        (norm_ff): LayerNorm((256,), eps=1e-12, elementwise_affine=True)
        (norm_ff_macaron): LayerNorm((256,), eps=1e-12, elementwise_affine=True)
        (norm_mha): LayerNorm((256,), eps=1e-12, elementwise_affine=True)
        (norm_mlp): LayerNorm((256,), eps=1e-12, elementwise_affine=True)
        (norm_final): LayerNorm((256,), eps=1e-12, elementwise_affine=True)
        (dropout): Dropout(p=0.1, inplace=False)
        (depthwise_conv_fusion): Conv1d(512, 512, kernel_size=(31,), stride=(1,), padding=(15,), groups=512)
        (merge_proj): Linear(in_features=512, out_features=256, bias=True)
      )
      (4): EBranchformerEncoderLayer(
        (attn): RelPositionMultiHeadedAttention(
          (linear_q): Linear(in_features=256, out_features=256, bias=True)
          (linear_k): Linear(in_features=256, out_features=256, bias=True)
          (linear_v): Linear(in_features=256, out_features=256, bias=True)
          (linear_out): Linear(in_features=256, out_features=256, bias=True)
          (dropout): Dropout(p=0.1, inplace=False)
          (q_norm): Identity()
          (k_norm): Identity()
          (linear_pos): Linear(in_features=256, out_features=256, bias=False)
        )
        (cgmlp): ConvolutionalGatingMLP(
          (channel_proj1): Sequential(
            (0): Linear(in_features=256, out_features=1024, bias=True)
            (1): GELU(approximate='none')
          )
          (csgu): ConvolutionalSpatialGatingUnit(
            (norm): LayerNorm((512,), eps=1e-12, elementwise_affine=True)
            (conv): Conv1d(512, 512, kernel_size=(31,), stride=(1,), padding=(15,), groups=512)
            (act): Identity()
            (dropout): Dropout(p=0.1, inplace=False)
          )
          (channel_proj2): Linear(in_features=512, out_features=256, bias=True)
        )
        (feed_forward): PositionwiseFeedForward(
          (w_1): Linear(in_features=256, out_features=1024, bias=True)
          (w_2): Linear(in_features=1024, out_features=256, bias=True)
          (dropout): Dropout(p=0.1, inplace=False)
          (activation): Swish()
        )
        (feed_forward_macaron): PositionwiseFeedForward(
          (w_1): Linear(in_features=256, out_features=1024, bias=True)
          (w_2): Linear(in_features=1024, out_features=256, bias=True)
          (dropout): Dropout(p=0.1, inplace=False)
          (activation): Swish()
        )
        (norm_ff): LayerNorm((256,), eps=1e-12, elementwise_affine=True)
        (norm_ff_macaron): LayerNorm((256,), eps=1e-12, elementwise_affine=True)
        (norm_mha): LayerNorm((256,), eps=1e-12, elementwise_affine=True)
        (norm_mlp): LayerNorm((256,), eps=1e-12, elementwise_affine=True)
        (norm_final): LayerNorm((256,), eps=1e-12, elementwise_affine=True)
        (dropout): Dropout(p=0.1, inplace=False)
        (depthwise_conv_fusion): Conv1d(512, 512, kernel_size=(31,), stride=(1,), padding=(15,), groups=512)
        (merge_proj): Linear(in_features=512, out_features=256, bias=True)
      )
      (5): EBranchformerEncoderLayer(
        (attn): RelPositionMultiHeadedAttention(
          (linear_q): Linear(in_features=256, out_features=256, bias=True)
          (linear_k): Linear(in_features=256, out_features=256, bias=True)
          (linear_v): Linear(in_features=256, out_features=256, bias=True)
          (linear_out): Linear(in_features=256, out_features=256, bias=True)
          (dropout): Dropout(p=0.1, inplace=False)
          (q_norm): Identity()
          (k_norm): Identity()
          (linear_pos): Linear(in_features=256, out_features=256, bias=False)
        )
        (cgmlp): ConvolutionalGatingMLP(
          (channel_proj1): Sequential(
            (0): Linear(in_features=256, out_features=1024, bias=True)
            (1): GELU(approximate='none')
          )
          (csgu): ConvolutionalSpatialGatingUnit(
            (norm): LayerNorm((512,), eps=1e-12, elementwise_affine=True)
            (conv): Conv1d(512, 512, kernel_size=(31,), stride=(1,), padding=(15,), groups=512)
            (act): Identity()
            (dropout): Dropout(p=0.1, inplace=False)
          )
          (channel_proj2): Linear(in_features=512, out_features=256, bias=True)
        )
        (feed_forward): PositionwiseFeedForward(
          (w_1): Linear(in_features=256, out_features=1024, bias=True)
          (w_2): Linear(in_features=1024, out_features=256, bias=True)
          (dropout): Dropout(p=0.1, inplace=False)
          (activation): Swish()
        )
        (feed_forward_macaron): PositionwiseFeedForward(
          (w_1): Linear(in_features=256, out_features=1024, bias=True)
          (w_2): Linear(in_features=1024, out_features=256, bias=True)
          (dropout): Dropout(p=0.1, inplace=False)
          (activation): Swish()
        )
        (norm_ff): LayerNorm((256,), eps=1e-12, elementwise_affine=True)
        (norm_ff_macaron): LayerNorm((256,), eps=1e-12, elementwise_affine=True)
        (norm_mha): LayerNorm((256,), eps=1e-12, elementwise_affine=True)
        (norm_mlp): LayerNorm((256,), eps=1e-12, elementwise_affine=True)
        (norm_final): LayerNorm((256,), eps=1e-12, elementwise_affine=True)
        (dropout): Dropout(p=0.1, inplace=False)
        (depthwise_conv_fusion): Conv1d(512, 512, kernel_size=(31,), stride=(1,), padding=(15,), groups=512)
        (merge_proj): Linear(in_features=512, out_features=256, bias=True)
      )
      (6): EBranchformerEncoderLayer(
        (attn): RelPositionMultiHeadedAttention(
          (linear_q): Linear(in_features=256, out_features=256, bias=True)
          (linear_k): Linear(in_features=256, out_features=256, bias=True)
          (linear_v): Linear(in_features=256, out_features=256, bias=True)
          (linear_out): Linear(in_features=256, out_features=256, bias=True)
          (dropout): Dropout(p=0.1, inplace=False)
          (q_norm): Identity()
          (k_norm): Identity()
          (linear_pos): Linear(in_features=256, out_features=256, bias=False)
        )
        (cgmlp): ConvolutionalGatingMLP(
          (channel_proj1): Sequential(
            (0): Linear(in_features=256, out_features=1024, bias=True)
            (1): GELU(approximate='none')
          )
          (csgu): ConvolutionalSpatialGatingUnit(
            (norm): LayerNorm((512,), eps=1e-12, elementwise_affine=True)
            (conv): Conv1d(512, 512, kernel_size=(31,), stride=(1,), padding=(15,), groups=512)
            (act): Identity()
            (dropout): Dropout(p=0.1, inplace=False)
          )
          (channel_proj2): Linear(in_features=512, out_features=256, bias=True)
        )
        (feed_forward): PositionwiseFeedForward(
          (w_1): Linear(in_features=256, out_features=1024, bias=True)
          (w_2): Linear(in_features=1024, out_features=256, bias=True)
          (dropout): Dropout(p=0.1, inplace=False)
          (activation): Swish()
        )
        (feed_forward_macaron): PositionwiseFeedForward(
          (w_1): Linear(in_features=256, out_features=1024, bias=True)
          (w_2): Linear(in_features=1024, out_features=256, bias=True)
          (dropout): Dropout(p=0.1, inplace=False)
          (activation): Swish()
        )
        (norm_ff): LayerNorm((256,), eps=1e-12, elementwise_affine=True)
        (norm_ff_macaron): LayerNorm((256,), eps=1e-12, elementwise_affine=True)
        (norm_mha): LayerNorm((256,), eps=1e-12, elementwise_affine=True)
        (norm_mlp): LayerNorm((256,), eps=1e-12, elementwise_affine=True)
        (norm_final): LayerNorm((256,), eps=1e-12, elementwise_affine=True)
        (dropout): Dropout(p=0.1, inplace=False)
        (depthwise_conv_fusion): Conv1d(512, 512, kernel_size=(31,), stride=(1,), padding=(15,), groups=512)
        (merge_proj): Linear(in_features=512, out_features=256, bias=True)
      )
      (7): EBranchformerEncoderLayer(
        (attn): RelPositionMultiHeadedAttention(
          (linear_q): Linear(in_features=256, out_features=256, bias=True)
          (linear_k): Linear(in_features=256, out_features=256, bias=True)
          (linear_v): Linear(in_features=256, out_features=256, bias=True)
          (linear_out): Linear(in_features=256, out_features=256, bias=True)
          (dropout): Dropout(p=0.1, inplace=False)
          (q_norm): Identity()
          (k_norm): Identity()
          (linear_pos): Linear(in_features=256, out_features=256, bias=False)
        )
        (cgmlp): ConvolutionalGatingMLP(
          (channel_proj1): Sequential(
            (0): Linear(in_features=256, out_features=1024, bias=True)
            (1): GELU(approximate='none')
          )
          (csgu): ConvolutionalSpatialGatingUnit(
            (norm): LayerNorm((512,), eps=1e-12, elementwise_affine=True)
            (conv): Conv1d(512, 512, kernel_size=(31,), stride=(1,), padding=(15,), groups=512)
            (act): Identity()
            (dropout): Dropout(p=0.1, inplace=False)
          )
          (channel_proj2): Linear(in_features=512, out_features=256, bias=True)
        )
        (feed_forward): PositionwiseFeedForward(
          (w_1): Linear(in_features=256, out_features=1024, bias=True)
          (w_2): Linear(in_features=1024, out_features=256, bias=True)
          (dropout): Dropout(p=0.1, inplace=False)
          (activation): Swish()
        )
        (feed_forward_macaron): PositionwiseFeedForward(
          (w_1): Linear(in_features=256, out_features=1024, bias=True)
          (w_2): Linear(in_features=1024, out_features=256, bias=True)
          (dropout): Dropout(p=0.1, inplace=False)
          (activation): Swish()
        )
        (norm_ff): LayerNorm((256,), eps=1e-12, elementwise_affine=True)
        (norm_ff_macaron): LayerNorm((256,), eps=1e-12, elementwise_affine=True)
        (norm_mha): LayerNorm((256,), eps=1e-12, elementwise_affine=True)
        (norm_mlp): LayerNorm((256,), eps=1e-12, elementwise_affine=True)
        (norm_final): LayerNorm((256,), eps=1e-12, elementwise_affine=True)
        (dropout): Dropout(p=0.1, inplace=False)
        (depthwise_conv_fusion): Conv1d(512, 512, kernel_size=(31,), stride=(1,), padding=(15,), groups=512)
        (merge_proj): Linear(in_features=512, out_features=256, bias=True)
      )
      (8): EBranchformerEncoderLayer(
        (attn): RelPositionMultiHeadedAttention(
          (linear_q): Linear(in_features=256, out_features=256, bias=True)
          (linear_k): Linear(in_features=256, out_features=256, bias=True)
          (linear_v): Linear(in_features=256, out_features=256, bias=True)
          (linear_out): Linear(in_features=256, out_features=256, bias=True)
          (dropout): Dropout(p=0.1, inplace=False)
          (q_norm): Identity()
          (k_norm): Identity()
          (linear_pos): Linear(in_features=256, out_features=256, bias=False)
        )
        (cgmlp): ConvolutionalGatingMLP(
          (channel_proj1): Sequential(
            (0): Linear(in_features=256, out_features=1024, bias=True)
            (1): GELU(approximate='none')
          )
          (csgu): ConvolutionalSpatialGatingUnit(
            (norm): LayerNorm((512,), eps=1e-12, elementwise_affine=True)
            (conv): Conv1d(512, 512, kernel_size=(31,), stride=(1,), padding=(15,), groups=512)
            (act): Identity()
            (dropout): Dropout(p=0.1, inplace=False)
          )
          (channel_proj2): Linear(in_features=512, out_features=256, bias=True)
        )
        (feed_forward): PositionwiseFeedForward(
          (w_1): Linear(in_features=256, out_features=1024, bias=True)
          (w_2): Linear(in_features=1024, out_features=256, bias=True)
          (dropout): Dropout(p=0.1, inplace=False)
          (activation): Swish()
        )
        (feed_forward_macaron): PositionwiseFeedForward(
          (w_1): Linear(in_features=256, out_features=1024, bias=True)
          (w_2): Linear(in_features=1024, out_features=256, bias=True)
          (dropout): Dropout(p=0.1, inplace=False)
          (activation): Swish()
        )
        (norm_ff): LayerNorm((256,), eps=1e-12, elementwise_affine=True)
        (norm_ff_macaron): LayerNorm((256,), eps=1e-12, elementwise_affine=True)
        (norm_mha): LayerNorm((256,), eps=1e-12, elementwise_affine=True)
        (norm_mlp): LayerNorm((256,), eps=1e-12, elementwise_affine=True)
        (norm_final): LayerNorm((256,), eps=1e-12, elementwise_affine=True)
        (dropout): Dropout(p=0.1, inplace=False)
        (depthwise_conv_fusion): Conv1d(512, 512, kernel_size=(31,), stride=(1,), padding=(15,), groups=512)
        (merge_proj): Linear(in_features=512, out_features=256, bias=True)
      )
      (9): EBranchformerEncoderLayer(
        (attn): RelPositionMultiHeadedAttention(
          (linear_q): Linear(in_features=256, out_features=256, bias=True)
          (linear_k): Linear(in_features=256, out_features=256, bias=True)
          (linear_v): Linear(in_features=256, out_features=256, bias=True)
          (linear_out): Linear(in_features=256, out_features=256, bias=True)
          (dropout): Dropout(p=0.1, inplace=False)
          (q_norm): Identity()
          (k_norm): Identity()
          (linear_pos): Linear(in_features=256, out_features=256, bias=False)
        )
        (cgmlp): ConvolutionalGatingMLP(
          (channel_proj1): Sequential(
            (0): Linear(in_features=256, out_features=1024, bias=True)
            (1): GELU(approximate='none')
          )
          (csgu): ConvolutionalSpatialGatingUnit(
            (norm): LayerNorm((512,), eps=1e-12, elementwise_affine=True)
            (conv): Conv1d(512, 512, kernel_size=(31,), stride=(1,), padding=(15,), groups=512)
            (act): Identity()
            (dropout): Dropout(p=0.1, inplace=False)
          )
          (channel_proj2): Linear(in_features=512, out_features=256, bias=True)
        )
        (feed_forward): PositionwiseFeedForward(
          (w_1): Linear(in_features=256, out_features=1024, bias=True)
          (w_2): Linear(in_features=1024, out_features=256, bias=True)
          (dropout): Dropout(p=0.1, inplace=False)
          (activation): Swish()
        )
        (feed_forward_macaron): PositionwiseFeedForward(
          (w_1): Linear(in_features=256, out_features=1024, bias=True)
          (w_2): Linear(in_features=1024, out_features=256, bias=True)
          (dropout): Dropout(p=0.1, inplace=False)
          (activation): Swish()
        )
        (norm_ff): LayerNorm((256,), eps=1e-12, elementwise_affine=True)
        (norm_ff_macaron): LayerNorm((256,), eps=1e-12, elementwise_affine=True)
        (norm_mha): LayerNorm((256,), eps=1e-12, elementwise_affine=True)
        (norm_mlp): LayerNorm((256,), eps=1e-12, elementwise_affine=True)
        (norm_final): LayerNorm((256,), eps=1e-12, elementwise_affine=True)
        (dropout): Dropout(p=0.1, inplace=False)
        (depthwise_conv_fusion): Conv1d(512, 512, kernel_size=(31,), stride=(1,), padding=(15,), groups=512)
        (merge_proj): Linear(in_features=512, out_features=256, bias=True)
      )
      (10): EBranchformerEncoderLayer(
        (attn): RelPositionMultiHeadedAttention(
          (linear_q): Linear(in_features=256, out_features=256, bias=True)
          (linear_k): Linear(in_features=256, out_features=256, bias=True)
          (linear_v): Linear(in_features=256, out_features=256, bias=True)
          (linear_out): Linear(in_features=256, out_features=256, bias=True)
          (dropout): Dropout(p=0.1, inplace=False)
          (q_norm): Identity()
          (k_norm): Identity()
          (linear_pos): Linear(in_features=256, out_features=256, bias=False)
        )
        (cgmlp): ConvolutionalGatingMLP(
          (channel_proj1): Sequential(
            (0): Linear(in_features=256, out_features=1024, bias=True)
            (1): GELU(approximate='none')
          )
          (csgu): ConvolutionalSpatialGatingUnit(
            (norm): LayerNorm((512,), eps=1e-12, elementwise_affine=True)
            (conv): Conv1d(512, 512, kernel_size=(31,), stride=(1,), padding=(15,), groups=512)
            (act): Identity()
            (dropout): Dropout(p=0.1, inplace=False)
          )
          (channel_proj2): Linear(in_features=512, out_features=256, bias=True)
        )
        (feed_forward): PositionwiseFeedForward(
          (w_1): Linear(in_features=256, out_features=1024, bias=True)
          (w_2): Linear(in_features=1024, out_features=256, bias=True)
          (dropout): Dropout(p=0.1, inplace=False)
          (activation): Swish()
        )
        (feed_forward_macaron): PositionwiseFeedForward(
          (w_1): Linear(in_features=256, out_features=1024, bias=True)
          (w_2): Linear(in_features=1024, out_features=256, bias=True)
          (dropout): Dropout(p=0.1, inplace=False)
          (activation): Swish()
        )
        (norm_ff): LayerNorm((256,), eps=1e-12, elementwise_affine=True)
        (norm_ff_macaron): LayerNorm((256,), eps=1e-12, elementwise_affine=True)
        (norm_mha): LayerNorm((256,), eps=1e-12, elementwise_affine=True)
        (norm_mlp): LayerNorm((256,), eps=1e-12, elementwise_affine=True)
        (norm_final): LayerNorm((256,), eps=1e-12, elementwise_affine=True)
        (dropout): Dropout(p=0.1, inplace=False)
        (depthwise_conv_fusion): Conv1d(512, 512, kernel_size=(31,), stride=(1,), padding=(15,), groups=512)
        (merge_proj): Linear(in_features=512, out_features=256, bias=True)
      )
      (11): EBranchformerEncoderLayer(
        (attn): RelPositionMultiHeadedAttention(
          (linear_q): Linear(in_features=256, out_features=256, bias=True)
          (linear_k): Linear(in_features=256, out_features=256, bias=True)
          (linear_v): Linear(in_features=256, out_features=256, bias=True)
          (linear_out): Linear(in_features=256, out_features=256, bias=True)
          (dropout): Dropout(p=0.1, inplace=False)
          (q_norm): Identity()
          (k_norm): Identity()
          (linear_pos): Linear(in_features=256, out_features=256, bias=False)
        )
        (cgmlp): ConvolutionalGatingMLP(
          (channel_proj1): Sequential(
            (0): Linear(in_features=256, out_features=1024, bias=True)
            (1): GELU(approximate='none')
          )
          (csgu): ConvolutionalSpatialGatingUnit(
            (norm): LayerNorm((512,), eps=1e-12, elementwise_affine=True)
            (conv): Conv1d(512, 512, kernel_size=(31,), stride=(1,), padding=(15,), groups=512)
            (act): Identity()
            (dropout): Dropout(p=0.1, inplace=False)
          )
          (channel_proj2): Linear(in_features=512, out_features=256, bias=True)
        )
        (feed_forward): PositionwiseFeedForward(
          (w_1): Linear(in_features=256, out_features=1024, bias=True)
          (w_2): Linear(in_features=1024, out_features=256, bias=True)
          (dropout): Dropout(p=0.1, inplace=False)
          (activation): Swish()
        )
        (feed_forward_macaron): PositionwiseFeedForward(
          (w_1): Linear(in_features=256, out_features=1024, bias=True)
          (w_2): Linear(in_features=1024, out_features=256, bias=True)
          (dropout): Dropout(p=0.1, inplace=False)
          (activation): Swish()
        )
        (norm_ff): LayerNorm((256,), eps=1e-12, elementwise_affine=True)
        (norm_ff_macaron): LayerNorm((256,), eps=1e-12, elementwise_affine=True)
        (norm_mha): LayerNorm((256,), eps=1e-12, elementwise_affine=True)
        (norm_mlp): LayerNorm((256,), eps=1e-12, elementwise_affine=True)
        (norm_final): LayerNorm((256,), eps=1e-12, elementwise_affine=True)
        (dropout): Dropout(p=0.1, inplace=False)
        (depthwise_conv_fusion): Conv1d(512, 512, kernel_size=(31,), stride=(1,), padding=(15,), groups=512)
        (merge_proj): Linear(in_features=512, out_features=256, bias=True)
      )
    )
    (after_norm): LayerNorm((256,), eps=1e-12, elementwise_affine=True)
  )
  (criterion_mt): LabelSmoothingLoss(
    (criterion): KLDivLoss()
  )
  (specaug): SpecAug(
    (time_mask): MaskAlongAxisVariableMaxWidth(mask_width_ratio_range=[0.0, 0.05], num_mask=10, axis=time)
  )
  (ctc): CTC(
    (ctc_lo): Linear(in_features=256, out_features=5000, bias=True)
    (ctc_loss): CTCLoss()
  )
)

Model summary:
    Class Name: ESPnetDiscreteASRModel
    Total Number of model parameters: 25.98 M
    Number of trainable parameters: 25.98 M (100.0%)
    Size: 103.92 MB
    Type: torch.float32
[lambda-Lambda-Vector] 2025-04-08 00:17:54,945 (abs_task:1391) INFO: Optimizer:
Adam (
Parameter Group 0
    amsgrad: False
…
